Rijul/Week4/cnn.pth (torch, 250839 bytes, 10 tensors)

conv1.weight f4 [6, 3, 5, 5]
00000000: 5ae6 c1bd 2d1e babd 5cc0 bcbd 6b55 323d
00000010: c141 173d a520 6bbd 420d 76bc 6d20 0abe
00000020: a4c3 00be 5c7b 463c e751 9cbd c280 92bd
00000030: b88d a1bd 2c1d 19bd c63a a2bd a620 01bc
00000040: 6373 913d ac2e 773d 2775 a8bd a201 d7bc
00000050: 020e d13c 66ba c93d b757 233b 4ecd 6c3b
00000060: cdb6 6c3d 1a31 1abe ccf6 f3bd af6f 5ebd
00000070: 76ae 16be 55d9 bebd fd34 54bd 43f8 81bd
00000080: c937 07be 764b acbd 1f6e 893d e5d8 08be
00000090: 4ce4 97bd d3bc 11be 3545 9dbd c264 1abe
000000a0: 1f73 f4bd bf1b 88bd dd4c 21be 49c6 b33c
000000b0: 9c39 1cbe 4e27 a9bd 2c47 6fbd e4a0 523c
000000c0: 28c0 89bd 9116 4ebc 7ba5 edbd 61e4 d73c
000000d0: 6673 393d e380 933d 5646 eabd b0e4 f4bd
000000e0: 7d1f 103d ce96 2c3d 6065 0fbe 559e 80bd
000000f0: 1944 9abd 5785 12be a75b 5ebd 112b 0f37
00000100: 25d5 75bc 7a26 47bd 37dd 20be b8b9 663d
00000110: 1145 093d ba90 64bc 32ef b3bd bd88 acbd
00000120: 19ec 513d cbf5 54bd 7518 02be 06ca 78b8
00000130: 51eb 85bd cdf7 b5bc 174a b1bd c8c2 ea3c
00000140: 81d3 743d dac8 cabd c20b cbbd 3f41 9cbd
00000150: 94f3 493b 128a e6bd 0a68 d73d 739f f1bd
00000160: 0aba a43d 8369 e5bd c7ca 1fbd dede 9bbd
00000170: bfd1 053d 811c 553d 2c6b 8a3d bd1b 9bbd
00000180: f93a 55bd e66f 76bc 68ec bb3d 4238 26bd
00000190: 3dbf 34bd ba09 aa3d 0f80 ccbd fe80 dc3d
000001a0: ffe6 e43d 3bf4 823c 23b5 aabb dfa5 c6bd
000001b0: cafd 7e3d 6438 8fbd f61d 9dbd 6509 bc3c
000001c0: 2a10 203c 0923 93bd f08b a5bd 74c4 573d
000001d0: 6f13 b0bd 62aa 4f3d c59f c53c 9681 bcbc
000001e0: 6c0b 723d 1cf7 ed3d fb08 953d b19c 013d
000001f0: 6353 bcbd 25f0 7d3d f936 afbd a8b5 993d
00000200: 408e b7bd b433 62bc 701d c83d 9758 95bb
00000210: 650c bb3c 874c dd3d a981 8dbd 8e5b 2c3d
00000220: 91b7 873d d351 8dbd 3d92 0bbd 145d 5ebd
00000230: 3222 1ebd e081 cf3d 86c1 723c dbe9 86bd
00000240: d6b6 c43c 9e10 c53d 23c1 e13d e453 d43b
00000250: 164b 013e 0df4 8b3c 2a5a 2dbd 1006 d3bd
00000260: 6bc9 b73d 02c1 05bd 7be6 6ebb b0ba d3bd
00000270: 7836 9d3c bd67 2ebd b677 f03d 873d e7bc
00000280: e488 023c 05ba c8bd a46a aa3d 5d50 db3d
00000290: afd1 103e d54b 1cbd 4e40 dcbd ddb8 663d
000002a0: 7583 20bd 65da ed3d 29d4 56bd 16ad 9e3d
000002b0: b9f5 b6bc 0e63 c0bc a0b7 a73d c58b e1bd
000002c0: 2366 13bd b8b0 dfbd 8270 ba3d 43f0 c0bd
000002d0: 54c6 723b 8dae 923c b4b0 183d fdb0 fe3d
000002e0: 937e 7a3d 0a77 25bd aa72 be3d 8260 7ebc
000002f0: 7868 95bd e490 9c3d ce58 7abd e8b8 ce3c
00000300: bdae 933d e252 e53d 0923 babc 29df 1cbd
00000310: e4a6 14bd 8398 6f3d da5d a3bd 003f 5ebd
00000320: 4472 6e3c d604 06be 9fad f3bd 5d22 b93d
00000330: b2b8 643d b762 c4bb 7cce c5bd c03c 10bd
00000340: 52e2 2f3d b4d0 49bd 6606 823d a52a 22bb
00000350: 4bd6 5f3d 321f 473c b10c d03d 349b cdbd
00000360: ad54 39bb b43a 3e3d 5931 df3d 4b8c d2bd
00000370: 15a6 f8bd 2027 f2bd 700c b0bd d41a cc3d
00000380: 2ec0 143d b90b 903d df1e eb3d 3a7c 6b3d
00000390: 1f55 45bd f720 d03c d1a5 c83d 819f 07bd
000003a0: 886c ca3d 5afd acbd 0205 46bd 30d4 7a3d
000003b0: c751 103e 6105 c23d e8ac b13d 7d81 533d
000003c0: 465b 143e 72fc 993d 3310 2bbd bc0b 8cbd
000003d0: fc0b 9abd f8c2 a13d 7595 94bc 71e5 8bbd
000003e0: e97e 98bd 19e9 723d d668 773c 2117 a6bc
000003f0: 2e05 533c e2b5 203b 6d42 6abb fc21 aa3d
-0.09467764 -0.09087787 -0.09216377 0.043538492 0.036927942 -0.05740418 -0.015017809 -0.13488932
-0.12574631 0.012114372 -0.07632809 -0.07153465 -0.07888359 -0.037381336 -0.079213664 -0.007881319
0.071020864 0.060347244 -0.0822547 -0.026245896 0.025519375 0.09850006 0.0024924108 0.0036133113
0.05779152 -0.15057793 -0.11912307 -0.05430573 -0.14714989 -0.093187965 -0.051808346 -0.0634618
-0.13204874 -0.084128305 0.06710457 -0.13363989 -0.07416591 -0.14232187 -0.07679216 -0.15077499
-0.1193602 -0.06645917 -0.15751977 0.021945136 -0.15256351 -0.0825945 -0.058417484 0.012855742
-0.06726104 -0.012578622 -0.116038285 0.026354017 0.04527607 0.072023176 -0.11439197 -0.11957681
0.03518628 0.042136006 -0.14003515 -0.062801994 -0.0753252 -0.14308678 -0.054286625 8.533491e-06
-0.015004431 -0.04862068 -0.15709387 0.05632946 0.033513132 -0.013950521 -0.08785857 -0.08424518
0.05125055 -0.05199222 -0.12704642 -5.9315957e-05 -0.06539024 -0.022212887 -0.0865671 0.028657332
0.05977202 -0.09901591 -0.09914352 -0.07629632 0.003081535 -0.112568036 0.10517891 -0.11797991
0.08043297 -0.112017654 -0.039011743 -0.07610868 0.032670733 0.052029137 0.06758723 -0.0757365
-0.052058194 -0.015041327 0.0917595 -0.040580995 -0.04412769 0.083026364 -0.09985363 0.10766791
0.111768715 0.015985599 -0.0052095815 -0.09699606 0.06225375 -0.069931775 -0.0767173 0.022953698
0.009769479 -0.07184417 -0.080833316 0.052677587 -0.08597457 0.0506996 0.024124036 -0.02301101
0.059092924 0.11619398 0.072771035 0.031643573 -0.09195592 0.061996598 -0.08555407 0.07505351
-0.08962679 -0.013806272 0.0977124 -0.00455768 0.022833059 0.10805612 -0.06909496 0.0420795
0.066268094 -0.06900372 -0.03407501 -0.054287985 -0.03860683 0.101321936 0.014816647 -0.06587573
0.024012964 0.0962231 0.11023166 0.006479727 0.126263 0.017084146 -0.042322315 -0.10303891
0.08973964 -0.03265477 -0.0036453295 -0.10338342 0.019191012 -0.0425794 0.11741583 -0.02822758
0.007967208 -0.098011054 0.08321121 0.107086875 0.14142488 -0.038158257 -0.10754453 0.056328643
-0.039187867 0.11613921 -0.052448425 0.07747857 -0.022333967 -0.023484733 0.081893206 -0.11012987
-0.035986077 -0.10922378 0.091034904 -0.09420826 0.0037044482 0.017905498 0.037277892 0.124361016
0.061155867 -0.040396728 0.09299214 -0.015525939 -0.072953165 0.07644823 -0.061119847 0.025234655
0.07211063 0.11197449 -0.022721784 -0.03829876 -0.03629197 0.058495056 -0.07976885 -0.0542593
0.01455361 -0.13087782 -0.1189835 0.090397574 0.0558402 -0.005993213 -0.096585244 -0.035214186
0.042940445 -0.0492713 0.06348877 -0.0024744656 0.054647725 0.012153434 0.10158671 -0.10039368
-0.002827923 0.046442702 0.10898084 -0.10280665 -0.12141053 -0.11823869 -0.08596122 0.099660546
0.03631609 0.07033486 0.114804976 0.05749152 -0.04817688 0.025406344 0.09797252 -0.0331111
0.09883982 -0.084467605 -0.04834462 0.061237514 0.14093696 0.09473682 0.086755574 0.05163716
0.14487943 0.07518853 -0.041763496 -0.06838176 -0.07521817 0.078985155 -0.018137673 -0.06830872
-0.07446081 0.05930433 0.015100678 -0.0202747 0.012879653 0.0024522473 -0.003574516 0.08307263

conv1.bias f4 [6]
00000000: 123a 5f3e 955d a6bb d60a ac3d 7951 32bb
00000010: bfbc a93d be5a ec3d
0.21799496 -0.005077074 0.08400504 -0.0027209206 0.082879536 0.11540745

conv2.weight f4 [16, 6, 5, 5]
00000000: d9d6 d7bc 82c0 913d db6e 54bc d63e e53c
00000010: e036 fc3c c9c6 b1bb 9780 32bd f925 043d
00000020: 35a7 a1bd 33cc dd3c 6ecb 3f3d 5e0d a23d
00000030: 9fb4 9cbd 97fe 873d 8c35 563c ad02 743b
00000040: 8c38 6a3a d2ff a8bd 0564 79bc becd 093d
00000050: 5681 053c 9e29 aebd dba8 27bd 8b08 f0bc
00000060: afe3 393d 96ab 4a3d 7c32 8dbd a9b6 e23a
00000070: c250 09bd f290 ed3c aa2a 82bd f146 323d
00000080: 7beb 523d 29bd 72bc 9e35 64bd 05c5 54bd
00000090: 620c 783d e04a 943d ea08 733d 2022 b23c
000000a0: d4e2 9cbb e6b6 ce3c ad05 523d 251a 98bd
000000b0: 43d3 993d 54de 41bc 5678 58bc 2d18 a33d
000000c0: 5fe5 06bd d1f1 b0bc cd0a d83c efb0 83ba
000000d0: 7cf2 f53c 3d24 57bd 6c28 4cbd 3a78 32bd
000000e0: fa2a bd3d fa92 1c3b 27f7 98bd 256b 81bc
000000f0: c14d 4ebd e5cb 483d dc28 94bd d2b6 3abd
00000100: 6616 5dbd 41d2 a93d 749f 143d f5e5 903c
00000110: 100b 963d c5ee aa3d da1b 82bd 169a 463d
00000120: 9047 25bd f3bc 323d bb97 163c 78fa 763c
00000130: 178a ab3d 986c 2b3d c2b8 4abd 3a79 8abc
00000140: 67dc 793d 3625 97bd 042c 813d 30ad 873d
00000150: 12a8 383d b394 97bd 73c5 323d f062 aa3d
00000160: cd6c 87bc f914 10bd efae 03bc dd2e 2a3b
00000170: 8cd9 033c 7db2 9e3d 0c24 093d 0472 8ebd
00000180: 6a6a 73bd 5a68 033d 186b a13d 984d 80bd
00000190: d748 32bd ca8b 90bd 4ea3 7d3c 054d 8d3d
000001a0: 1780 0abc 1ef0 8a3d 4cb6 853c 14cd 57bd
000001b0: a52d a4bb 276e 0ebd 43d6 ae3d 7210 78bd
000001c0: 8cb0 6dbd 106a 9f3d 22ff 8fbd 151d fcbc
000001d0: 03bd fc3c 2b3c 15bb 5aab b2bc f6fe a9bc
000001e0: aeaf a13d b0c7 ccbc 0a60 5fbd 6a86 843d
000001f0: 4e69 8ebd 4512 8fbd 3f56 813d 529a 663d
00000200: ac2d 47bd 2556 5d3d 8dda c1bc e131 503d
00000210: d376 70bc ca75 55bc 614b 93bd b2ad 5abd
00000220: 16b9 873b d86c 40bd 4a3e 1fbd a0df 9cbd
00000230: 25eb ae3d be57 643b 0588 0a3d 0cf1 debc
00000240: 7092 60bd d8a2 aa3d 946e 35bd 7d18 5bbd
00000250: ca6b 8abd 16df 613b d099 4c3b 9b16 d7ba
00000260: be39 4e3b 083f 61bb 5e5a 733d bd90 023e
00000270: acd6 da3d 0766 373d 6fe3 be3d a4ff 9f3d
00000280: 9360 25b9 9f9a c43d 2cbb 783d 6856 abbc
00000290: 1b56 29bd c4ad c13d 76f2 f73c f5bf 853d
000002a0: db21 bfbc a26f 61bd c307 88bd 3cba 8cbd
000002b0: ed0b fb3c bd63 86bc 91d7 01bd fcfd 743d
000002c0: fd31 76bd 9b28 6e3d 009d 62bd 105b a33d
000002d0: da6a d2ba ff1e 78bd 0064 84bd 98b9 89bd
000002e0: aacc 15bd 25d7 89bd 5ce0 383d b806 f43c
000002f0: e276 ee3c 7233 82bc 3597 24bd 28a0 453c
00000300: b375 a63d cc1d 7e3d c627 023d 3de3 43bd
00000310: 472d 8f3d ade1 c1bc b4a3 34bd 3646 d4bc
00000320: 0f20 983d d7cc e13c 666d 39bc 53be 293d
00000330: f3a1 793d c982 a83c 9fc9 eabc 6860 8a3d
00000340: 9bb4 ae3d b5fd 83bd 54da 88bd b003 6f3d
00000350: 9c8d 6b3d 284e 843d cde6 86bd f404 84bd
00000360: dba6 6abd e96a 1e3d 56ec 4e3b ea3f e03c
00000370: b664 003d b081 60bd 85f8 1abc f3de 60bb
00000380: c584 ab3d 7475 3e3c 09a4 4d3d d2cb 183d
00000390: c4d7 a53b 9024 2e3c 006f c63c 97a9 1cbd
000003a0: cbf9 52bc 2498 983b 3ff6 373d afc1 ceba
000003b0: 75f7 75bd f803 973d b208 f4bc bdd8 803d
000003c0: 0f62 0bbd f369 983d 6b7a 273d 6a82 833d
000003d0: 02b8 aa3c 14d7 343d ff4e 553d f775 01bd
000003e0: a11e 6f3d beae 83bd aca6 60bb b705 be3d
000003f0: d34f 933d 700b a53d 1235 0dbd a8d1 e1bb
-0.026347565 0.07116796 -0.012965883 0.027984064 0.030787885 -0.0054253084 -0.043579664 0.032262776
-0.0789322 0.027074909 0.046824865 0.07912706 -0.07651638 0.06640356 0.01307429 0.003723304
0.0008934818 -0.08251919 -0.0152216 0.033643477 0.008148512 -0.085040316 -0.040932517 -0.029300949
0.04538315 0.049480043 -0.06894395 0.0017296869 -0.033524282 0.02899978 -0.06355794 0.043524686
0.051494103 -0.014815607 -0.055715196 -0.051945705 0.060558684 0.07240844 0.059334673 0.021744788
-0.004787782 0.025233697 0.051274944 -0.07426862 0.07510998 -0.011832792 -0.013212284 0.079635955
-0.03293359 -0.021599682 0.026372338 -0.0010047237 0.030022852 -0.052524794 -0.049843237 -0.04357169
0.09236713 0.0023891316 -0.074690156 -0.01579816 -0.05036712 0.049022574 -0.07234356 -0.045584507
-0.05397644 0.08292056 0.03628488 0.017687777 0.07326329 0.08346323 -0.063529685 0.04848679
-0.04035145 0.043637227 0.009191449 0.015074365 0.08375948 0.04185161 -0.049492605 -0.016903508
0.061001208 -0.07380144 0.063072234 0.0662483 0.04508216 -0.07401409 0.043645333 0.08319652
-0.016531372 -0.03517625 -0.008037313 0.0025967874 0.008047473 0.07748888 0.033481643 -0.069553405
-0.059427656 0.03208194 0.07881755 -0.062648 -0.043526497 -0.07057913 0.015480829 0.06899456
-0.008453391 0.0678408 0.016322277 -0.052685812 -0.005010324 -0.03477302 0.08536961 -0.06056256
-0.058029696 0.07783902 -0.070310846 -0.030775586 0.030851847 -0.0022771459 -0.021810222 -0.020751458
0.07894836 -0.024997562 -0.05453495 0.0647095 -0.06953679 -0.069859065 0.06315278 0.056299515
-0.04862754 0.054037232 -0.023663783 0.05082882 -0.014676767 -0.013028571 -0.07192112 -0.053388305
0.004141937 -0.0469788 -0.038877763 -0.076598406 0.08540944 0.0034842337 0.033821125 -0.02721455
-0.054827154 0.08331841 -0.04429491 -0.05349015 -0.067588404 0.0034465245 0.003121961 -0.0016409935
0.0031467522 -0.0034369845 0.059412353 0.12750526 0.10685477 0.044775035 0.09320723 0.078124315
-0.00015771603 0.09599804 0.060725376 -0.020915225 -0.041341882 0.09456971 0.030266982 0.065307535
-0.023331573 -0.055038102 -0.066421054 -0.06871459 0.030645335 -0.01640498 -0.03169972 0.05981253
-0.060106266 0.058144193 -0.055325508 0.07976353 -0.0016053573 -0.060576435 -0.06464386 -0.06724852
-0.036572136 -0.06730489 0.04513584 0.02978836 0.029109422 -0.015893672 -0.040183265 0.01206211
0.08127918 0.062040135 0.031776212 -0.047824133 0.06991058 -0.02366718 -0.044101432 -0.025912385
0.0742799 0.027563496 -0.0113175865 0.041441273 0.060945462 0.020570176 -0.028660594 0.06756669
0.085305415 -0.06444875 -0.06682268 0.058353126 0.057508096 0.064602196 -0.065869905 -0.06446257
-0.057288032 0.038676176 0.0031573973 0.027374227 0.031346045 -0.05481118 -0.009458666 -0.0034312576
0.08374933 0.011624683 0.050205264 0.037303753 0.0050611217 0.010628834 0.02422285 -0.03824767
-0.012876938 0.0046568085 0.044912573 -0.0015774275 -0.060050447 0.07373804 -0.029789302 0.062913395
-0.034029063 0.07442083 0.04088823 0.06421359 0.020839695 0.044150427 0.05207729 -0.03160664
0.05837882 -0.06429814 -0.0034279032 0.09278434 0.0719296 0.08058822 -0.03447444 -0.006891448

conv2.bias f4 [16]
00000000: 8d03 bc3d 19b4 e23c e16d 343d e152 613d
00000010: 6fa5 c43d 71c3 8a3d 15be 1e3d e108 31ba
00000020: f62a dd3c b5ff b13d 9ca0 363d f45c 333d
00000030: 8400 9f3c 8f27 61bc 3eee 8cbd af47 b43d
0.09180365 0.027673768 0.0440501 0.05501068 0.096018665 0.06775559 0.038755495 -0.0006753337
0.026998024 0.0869135 0.044586763 0.04378982 0.019409426 -0.013742342 -0.068813786 0.08802735

fc1.weight f4 [120, 400]
00000000: 80d5 173d 4d5a f43c ff37 a7bc 1337 3ebc
00000010: 2adc f93c c7ec e6bc 1f3c 2cbb 99f5 f83c
00000020: d4a0 303d ac6b 23bd 983b cdbc d088 9bbc
00000030: fec5 e0bc 1550 dc3c dc93 a93b 41b4 433d
00000040: b2df e33c 2445 cf3c 4261 df3c 2945 cf3c
00000050: 967b 483c d0ce ab3c d139 fcbb ffe1 10bd
00000060: 2f52 353d bbfd c8ba 257f 8b3c 94d2 18bd
00000070: 76ce 22bd 88a8 893c 879a 0d3d 192d 2fbd
00000080: 377d 97bc 79fc ba3c ec08 d03c cea0 79bb
00000090: c368 dcbc d4b8 3c3d ad29 97bb 7f54 48bc
000000a0: 9c70 3bbd d250 0f3d b9ea 0d3d f404 b83c
000000b0: 5f27 d93c 4c5d 37bd 42c4 38bd 7993 d33c
000000c0: a652 debc 8c8a 32bd 0a12 3b3d 3725 2ebd
000000d0: 561c 6a3c e617 a8bb 59e4 ce3c e11f 8f3c
000000e0: be84 833c 5c3e 2ebd 3a46 aa3b 9c9b 36bd
000000f0: fdbf 413d 5265 a2bb b283 3dbd aeab e93c
00000100: 46be bdbb b36a ab3c 7bec f93c 99d7 9e3c
00000110: 08ad 0f3d 0de4 91bc 9c83 823c 19e2 453d
00000120: 3066 fb3c 0e78 86bc aaf7 a8bc 2b6b 05bd
00000130: 8d22 5fbc 6944 363a 8f7c 65bb d284 35bd
00000140: 573d 0d3d 6de6 c63a 4a87 20bc 0ade 82bc
00000150: 2012 bdbc a229 b6bc 1136 a1bc 7b5b 98bc
00000160: 6030 92bc 1f25 03bd 318b e93c 8ba3 30bd
00000170: 9e23 b739 aa3f 053d 9514 1fbd 1e48 3f3d
00000180: a83f 48bd e5f5 c73c c34d a33c d8c4 29bd
00000190: f86c d0bc 458a 283d 45fd 02bd 9d1a 433d
000001a0: fd78 1fbb 6a12 dcbc 07f3 2d3d 0344 9abc
000001b0: 229b 143d 050d a3bc e7a2 08bd d86a 0d3c
000001c0: 8a33 b7bc 28d3 3fbc 8930 c33b 9f3e 21bd
000001d0: f463 1ebd 093a d5bb ad71 bebc e248 0e3d
000001e0: d1b2 583b 2ab9 2c3d 75ce 0a3d 0066 9abb
000001f0: af1f 39bc b04b 023d 5178 b3bc a66e 2ebd
00000200: b102 fdbb 8296 e63b 7c8b e13c 50fa 363c
00000210: 1dad 833c cad9 33bd 8256 c33c 5ef6 29bd
00000220: 9005 593c 8da4 8d3c 2d2e b53c 89ac 27bd
00000230: ea65 853c 810c 32bc 3978 153c 58cd 0ebd
00000240: e8ad 6a3c 9b13 08bc f540 b1bb 9c6e c63c
00000250: 9f66 81bb 8645 27bd f2f0 433d 9384 6bbc
00000260: d4e4 09bd 7775 17bd ca8d 103c d710 0abd
00000270: 891d d7bc 067a eebc 629d c5bc d3b6 6e3b
00000280: 605b 943c f183 27bc 2905 273d 5679 903b
00000290: fa06 f83c e524 063d 99f1 473d fc57 6fbc
000002a0: e929 2b3d f8d2 373d 395f 2f3c a684 493c
000002b0: 89e9 64bc 3a01 eb3c eb13 173d eabd a03c
000002c0: 910c 9f3c 93ab 8dbc dda3 383d c4ba e1bc
000002d0: 928e 233d 0315 413d 60a7 9c3c bba0 2c3d
000002e0: 018e 193c bca5 8fbc 65aa 42bd 6855 25bd
000002f0: 3159 2fbd 1efb 4d3c 442a 993c a203 2cbd
00000300: 6cdb 4e3a 459b 67bc ee38 15bd 6650 adbc
00000310: 49a0 ee3b c46e f1bc 1e83 413b cafc 463d
00000320: f982 0fbc 1b4e 5b3c 0677 2c3d 948a e5ba
00000330: 3f53 8a3c 79b1 f9bc de6a 0fbd ba3c 8fbb
00000340: 2667 523c c96d c7bb 856e 193d 5764 debc
00000350: 2a8f de3b cfc9 243d f285 b93c 7ca7 cabc
00000360: cfcb 26bd f305 cabc afc3 8abc f892 e5bc
00000370: 3edb 0b3d f36a b4bc f522 873c a9a6 25bd
00000380: 1269 d0ba 591e 703c 8499 21bc c86e a03b
00000390: 5e92 4cbb 51ef 013b b93e ae3c 7978 a2bb
000003a0: dc75 1fbd 7b71 2bbc f8dd 443d 3be8 903c
000003b0: f894 6a3b 3591 18bd 44f5 4cbd dd56 35bd
000003c0: f562 fcbb 3850 eb3c 002b 23bd 4733 7eba
000003d0: f451 cabc 2f61 0fbc 75d2 37bc 22f6 ed39
000003e0: d140 b2bc 8d85 f73c 79d3 2bbd 5c66 363d
000003f0: 7a75 0d3c 71f2 a13b b9e2 2fbd 2d31 a4bc
0.037068844 0.029828215 -0.020412443 -0.01160981 0.03050049 -0.028189076 -0.0026280952 0.030390548
0.043122128 -0.039897606 -0.02505283 -0.018986136 -0.02743816 0.026893655 0.005175097 0.047779325
0.027816627 0.025301524 0.027268056 0.025301533 0.012236496 0.02097264 -0.007697322 -0.035371777
0.04426783 -0.0015334407 0.0170284 -0.037310198 -0.039747678 0.016803995 0.034571197 -0.042767618
-0.018492324 0.022825466 0.02539488 -0.0038090232 -0.026905423 0.046074703 -0.0046131224 -0.012227177
-0.04576169 0.034989186 0.034647677 0.0224633 0.026508031 -0.04476671 -0.04510904 0.025827156
-0.02713902 -0.04358916 0.0456715 -0.04251596 0.014288982 -0.005129802 0.025255369 0.017471256
0.016054507 -0.04253994 0.00519636 -0.044581994 0.047302235 -0.004955926 -0.046268173 0.028524246
-0.0057905046 0.020924902 0.03050827 0.019389914 0.035077125 -0.017808938 0.015931897 0.048311327
0.030688375 -0.016414668 -0.020625908 -0.032572906 -0.013619077 0.0006952943 -0.003501687 -0.04431612
0.034482326 0.0015174873 -0.00979788 -0.015975017 -0.023079932 -0.022236649 -0.019679101 -0.018598309
-0.017845333 -0.032017823 0.028508754 -0.043124717 0.00034931017 0.032531418 -0.038837988 0.046699636
-0.048888832 0.024409244 0.01993454 -0.04144749 -0.025442585 0.04114749 -0.031979818 0.047632802
-0.002433359 -0.02686425 0.042468097 -0.018831259 0.03628076 -0.01990367 -0.03335848 0.008631431
-0.022363443 -0.011708058 0.0059567136 -0.03936636 -0.03866954 -0.0065071625 -0.023247564 0.034737475
0.0033065567 0.042168774 0.0338883 -0.0047118664 -0.011299058 0.031810462 -0.021907957 -0.04258599
-0.007721268 0.007036985 0.027532332 0.011168078 0.016073758 -0.04390887 0.023844961 -0.04149472
0.013245955 0.017290378 0.022116745 -0.040936027 0.016283948 -0.010867239 0.009122902 -0.0348638
0.014323689 -0.008305456 -0.005409355 0.024222665 -0.003949001 -0.040837787 0.047837205 -0.01437487
-0.033665493 -0.036977258 0.008822868 -0.033707466 -0.0262592 -0.02911092 -0.024122898 0.003642489
0.018109977 -0.010224328 0.040776405 0.0044089956 0.030276764 0.03275003 0.04881439 -0.014608379
0.041788016 0.04487893 0.010703855 0.012299692 -0.013971695 0.028687108 0.03688423 0.019621808
0.019415172 -0.017293727 0.045078147 -0.027554877 0.039930888 0.04713918 0.01912278 0.042145472
0.009372235 -0.017535083 -0.047525782 -0.040364653 -0.04280967 0.012572078 0.018696912 -0.041995652
0.0007890973 -0.01413614 -0.036431246 -0.021156501 0.007282291 -0.029471762 0.0029527615 0.048580922
-0.008759254 0.013385321 0.042105697 -0.0017512613 0.016885398 -0.030480133 -0.035014026 -0.004371253
0.012841975 -0.0060860855 0.037458915 -0.027147455 0.006791969 0.040231522 0.022646878 -0.024738066
-0.04072171 -0.02466104 -0.016939012 -0.028024182 0.034144633 -0.022023654 0.016496161 -0.040442143
-0.0015900454 0.014655673 -0.009863261 0.0048960187 -0.0031215171 0.0019826482 0.021270143 -0.004958209
-0.03893076 -0.010464068 0.04806325 0.017688861 0.0035794359 -0.037247855 -0.05003859 -0.044272292
-0.0077022263 0.028724775 -0.03983593 -0.0009696972 -0.024697281 -0.008751198 -0.01121961 0.00045387546
-0.021759422 0.03021505 -0.041949723 0.04453121 0.008633966 0.0049422313 -0.04294083 -0.02004298

fc1.bias f4 [120]
00000000: 12c5 0cbd b48f e93c 7999 12bd e5e8 393d
00000010: 3609 03bd 8fed 39bd b38f c7bb eb68 b33c
00000020: dd0c 89bc 690e 3bbd 9dea 2c3d 8fe0 9bbc
00000030: fd2b 90bc 4547 0f3d 7100 443d 4f2a 33bd
00000040: 8192 893c 9fbe 80bb 63e7 d13c 0e60 a4bc
00000050: 9ca6 023d 12b4 033d 01b9 233d a50d d83c
00000060: c0e2 45bd 8ef4 73bc 6299 a1ba 744d da3b
00000070: 4cc7 6c3d b46d dbbc b9f2 603d a2f5 963c
00000080: 6616 abbc f2a2 0cbc 549b 23bd 9de3 e3bb
00000090: 407c 783d 2e5e 9bbb b4b4 a1bb 1998 303d
000000a0: 043a 3dbd adf7 743c 6595 3b3c 00df 503d
000000b0: 2ce9 07bd ca31 2abd 1f09 123d edab bf3c
000000c0: 2ba5 eabc 9f22 3ebd 4a85 7b3d c18f 2ebd
000000d0: a52f 9cbc 0294 0e3d 1b4b 2f3b 54f0 59bd
000000e0: 8c78 e23c 1ade 653c ac2e 6ebc 25ce 243d
000000f0: 5011 c63c 8308 7b3c 1021 2c3d c397 9bbb
00000100: c853 d8bc df3f 82bc 55f2 443d fb80 46bc
00000110: ac50 cfbc 2354 0e3d b18e be3c 0578 973b
00000120: 5b68 5c3d fe85 02bd 498f 85bc 189c 7d3c
00000130: 304e 913c 247e aabc ad6d 21bd 37ad 2cbd
00000140: 89e5 cfbc 5949 d1bc 58cf 02bd b70d f2bb
00000150: 27f3 05bc fd06 d2bb 6f13 973d 0123 c83c
00000160: f58f e93c f24c 143d faa0 393d 3117 78bb
00000170: 46d5 e5ba 93a5 28bd dfe4 0bbd 3684 30bc
00000180: c5d8 193d 3dd1 92bc 403b cbbc 9a39 5fbc
00000190: 7c42 3ebc edd2 363d b8d6 03bd 7ec3 ccbc
000001a0: 5af4 403d 81ab 013d 671d 99ba a58f 6a3c
000001b0: a197 8cbb 7f3f 163d 4110 a1bc 6c08 1ebd
000001c0: e87b 9f3d af08 293c 725e 5b3c ef23 dd3b
000001d0: a918 1cbc b2fb 343c 7ba0 65bd 1308 463d
-0.03436763 0.028510906 -0.035790894 0.04538812 -0.031991206 -0.04539257 -0.0060901283 0.021900615
-0.016729767 -0.04566804 0.042215932 -0.019027976 -0.0175991 0.034980077 0.047851983 -0.04374152
0.016793491 -0.003928974 0.02562303 -0.020065334 0.031897172 0.03215415 0.039971355 0.026373694
-0.04831195 -0.014889849 -0.0012329037 0.006662065 0.05780725 -0.026785709 0.05491898 0.018427674
-0.020884704 -0.008583771 -0.039943054 -0.006954624 0.06066537 -0.0047414517 -0.0049348716 0.0431138
-0.046197906 0.014951629 0.011449193 0.05099392 -0.033181354 -0.04155139 0.03565323 0.02339741
-0.028643211 -0.046419736 0.06140641 -0.042617563 -0.019065687 0.03480912 0.0026747647 -0.05320771
0.027645372 0.014030004 -0.014537495 0.040235657 0.024178177 0.015321854 0.04202372 -0.004748316
-0.026407138 -0.015899597 0.04808267 -0.012115712 -0.025307022 0.034748208 0.0232614 0.0046224617
0.05381046 -0.031866066 -0.016303675 0.01547911 0.017737478 -0.020812102 -0.039411236 -0.042157378
-0.025378006 -0.02554767 -0.03193602 -0.007386889 -0.008175648 -0.0064095245 0.073767535 0.024430754
0.028511027 0.036206193 0.045319535 -0.003785562 -0.0017534874 -0.04117353 -0.034153815 -0.010773709
0.037560243 -0.017922038 -0.024808526 -0.013624573 -0.011612531 0.04463475 -0.032187194 -0.024995562
0.04710803 0.0316577 -0.0011681736 0.014316474 -0.0042905365 0.03668165 -0.01966107 -0.03858225
0.07787305 0.010317012 0.013389217 0.0067486684 -0.009527364 0.011046337 -0.05606125 0.048347544

fc2.weight f4 [84, 120]
00000000: 2747 973c 84a3 adbc 4920 cabc ea89 4d3c
00000010: 0873 7c3d 383e 8e3c 427d d9bc d28a 7bbd
00000020: 40bd 953d 584c 333d ceb5 3bbd c6cb 18bc
00000030: 3828 533d 32b9 b4ba 1eef 243d f1b6 4ebd
00000040: 0c72 b2bd 99d5 113d 3c85 463d 1b75 9e3d
00000050: 01cc c13c 6518 b33d d282 ae3d 212e be3b
00000060: 5e53 0f3d 9f36 b23d b7b0 31bd ebe3 7ebd
00000070: 89d2 a93d c14a 0ebd 35d8 29bd be8f 16bd
00000080: 66a8 a2bd 392a 413d f02c 41bd 08fc 203d
00000090: 6213 fb3c ac43 8ebd 3945 a2bd 32ad 083d
000000a0: ea4f 99bd b9bc 693c 834f aebd ca0a 143d
000000b0: fb78 b0bd d515 923d ca38 433d 5561 5b3d
000000c0: c8b2 9abd 1afb 9d3d d719 a33d 7016 a8bd
000000d0: b270 2d3d 9c7f 8d3d 5c30 c53c de7f c73d
000000e0: 132e a93d 65d2 7ebd 187c 7ebc cdca 4fbd
000000f0: 0877 8e3c bc0e 27bd e04d 3e3d f892 6d3d
00000100: f4c7 363d 3282 9dbd 332a f93c f935 5f3d
00000110: 5253 8cbd e833 c1bc b58f 2ebd 7c91 c33d
00000120: 1a56 51bd 31f5 db3c e12a 87bd ffed 53bd
00000130: bf0e a8bd 9310 96bd f25f 6abd d8c3 4abd
00000140: 46a5 2cbd b527 4cba 712a b83d 3e52 163d
00000150: b9fe b73d cc43 54bb 6185 d8bb 2a6b 4e3c
00000160: b46d 723d 4fd7 033d 5e4d b73d cc4d 30bd
00000170: e7d9 9cbd cbbc 17bd 3949 abbd cd27 67bd
00000180: 508d c73d 3ad1 02bd da49 85bd fd1a 2fbd
00000190: f88a b4bd 9c46 943c cb36 1ebd 3b0c 553d
000001a0: e052 99bd 13f1 74bd 97a9 05bd 122b 64bd
000001b0: 172a b53d 4def 5f3d 8463 953d 7fd5 9f3d
000001c0: f5b8 5dbc c262 a63d 98f7 3dbd e4a2 893d
000001d0: 08a2 eb3c 8ced 853d f2d1 823d eee6 b7bd
000001e0: 521e b33d 09f2 ab3d 7e65 29bd 4f3b 22bb
000001f0: 38b2 dabc c051 a6bc fc4c 89bd f2ca 18bd
00000200: 2f2a 01bd 778e 8b3b 0233 7b3d 854b 2e3d
00000210: b16b a4bd cf20 11bd a705 37bd 27cf 143d
00000220: 83e1 c83c b6d0 d33b 4cfb 673d fb1b 833d
00000230: 2305 89bd b806 193d c3a8 2ebc 1956 a3bc
00000240: 9a70 95bd d0e3 803d 1e03 b9bd a60c 01bd
00000250: 8191 b0bd c598 663c bda6 1ebd 69e9 86bc
00000260: 0a52 bd3c 715f b9bd b519 96bd 1535 1fbd
00000270: 82ab b63d 1776 01bd b48e 93bd 2e94 7ebc
00000280: 3184 a5bd 7206 0f3d f32d a03b f12e b83d
00000290: 8f41 e5bc 8026 a33d 5515 be3b 8fd7 5b3d
000002a0: 9c63 14bd b76e 92bd 7413 abbc 1d6f c23c
000002b0: 7ed5 d93c dc4f 953d cab3 b83d 591e 27bd
000002c0: a67c 9f3b 7b76 8dbd 8891 7b3d 8674 9cbd
000002d0: 20e6 3b3b 7f0a b53b 18ab f9bc 4592 d8bb
000002e0: 1f21 253c 7466 75bd 1299 b03d 7c69 0e3d
000002f0: e262 413d e542 cc3c d278 133d 09cd 5e3d
00000300: ce89 c23d bc44 f73c 62a3 1fbd 0314 60bd
00000310: a6b9 813d 801b 133c e772 573c b58d 0abd
00000320: f853 c3bc 2844 433d cad5 983d a980 173c
00000330: 9c7a e63b 18e3 88bd a3eb 193d 1b76 0b3d
00000340: b630 aabc 1965 7abd 81e5 963d 8af3 6bbc
00000350: 300d aabc 7238 983d f216 04bc f676 833d
00000360: eb15 a0bd dc07 9e3d 987b e7bc 55aa 9abb
00000370: 53c7 0ebc 7c8e 43bd b47d 173d 69d0 4fbd
00000380: a174 5a3d af2b bf3c 3056 9fbc 3ed7 aa3c
00000390: e7e2 113d e506 b4ba b19d 623d 928c 9db8
000003a0: 6e1b 573d 28ca 8cbd 9a25 a2bd 10d7 a6bd
000003b0: 9e71 dd3c b299 36bd 888d 55bd 8032 223a
000003c0: 6f01 d43c 22cb 4d3c 9948 19bd 6c8f 843b
000003d0: e284 a53d a019 0d3d 3287 b93d b84f 933d
000003e0: 5a0c f1bc fe59 ba3d 714c ea3c a5c2 f3bc
000003f0: 6623 c73c ba1f 823d 18c2 e9bb 83ae 8d3c
0.018466545 -0.021196134 -0.024673598 0.012545088 0.06163314 0.017363653 -0.026548985 -0.061411686
0.07311487 0.04377398 -0.04582768 -0.009325927 0.051552027 -0.0013788103 0.040267102 -0.050467435
-0.08713159 0.035604093 0.048466906 0.0773718 0.023656847 0.08744887 0.08521046 0.005803839
0.034991615 0.087018244 -0.04338142 -0.06222908 0.082921095 -0.03473926 -0.041465957 -0.036758177
-0.07942276 0.047159407 -0.047161996 0.039302856 0.03064889 -0.06946501 -0.079233594 0.033368297
-0.074859455 0.014266186 -0.085112594 0.0361431 -0.08616825 0.071330704 0.04766158 0.05355962
-0.07553631 0.077139094 0.07963913 -0.082074046 0.042343803 0.06909105 0.024070911 0.097411856
0.08260741 -0.062212367 -0.015532516 -0.050730515 0.017390743 -0.040785536 0.046460986 0.05800149
0.044624284 -0.076908484 0.03041563 0.05449483 -0.068518296 -0.023584321 -0.04261752 0.09549233
-0.051107503 0.026850315 -0.065999754 -0.051740643 -0.082059376 -0.0732738 -0.057220407 -0.049503177
-0.042149805 -0.0007787899 0.0899247 0.036699526 0.08984131 -0.0032389043 -0.006607697 0.012598792
0.059186652 0.032187756 0.089503035 -0.043042943 -0.07658749 -0.03704528 -0.083635755 -0.05643444
0.0974375 -0.031937815 -0.06508227 -0.042750347 -0.08815569 0.018100075 -0.038626473 0.052013617
-0.0748651 -0.05980022 -0.032632437 -0.055705138 0.088459186 0.054671574 0.07294372 0.07804393
-0.013532867 0.08124305 -0.046378702 0.06720522 0.028763786 0.06539449 0.063877 -0.08979593
0.087460175 0.08395774 -0.041356556 -0.002475459 -0.02669631 -0.020302653 -0.06704137 -0.03730292
-0.03153437 0.0042589265 0.06132794 0.04255249 -0.08028353 -0.03543168 -0.044683125 0.03633037
0.024521595 0.0064640893 0.05663614 0.06401821 -0.06690433 0.037359923 -0.010660353 -0.019938515
-0.07296868 0.06293452 -0.09033798 -0.031506203 -0.08621503 0.014074509 -0.038733233 -0.01646872
0.023110408 -0.09051407 -0.07329122 -0.038868982 0.08919431 -0.03160676 -0.07204953 -0.0155382585
-0.08081854 0.034918256 0.00488829 0.08993328 -0.027985362 0.07966328 0.005800883 0.05367237
-0.036227807 -0.071500234 -0.0208833 0.023734624 0.026591059 0.072906226 0.09018667 -0.040800426
0.004867154 -0.06907364 0.061418086 -0.076394126 0.00286711 0.005524933 -0.030477092 -0.0066092336
0.010078697 -0.05991216 0.08622946 0.034768566 0.047213443 0.024934242 0.036003895 0.054394756
0.094989404 0.030184142 -0.038974173 -0.054706585 0.06334238 0.0089787245 0.013149953 -0.03382655
-0.02384375 0.04767242 0.07462652 0.009246984 0.007033659 -0.0668394 0.037578236 0.03404818
-0.02077518 -0.06113157 0.07367993 -0.014401326 -0.020758241 0.07432641 -0.008062111 0.064191744
-0.078166805 0.07716343 -0.028257176 -0.004720012 -0.008714515 -0.047743306 0.036985114 -0.050735865
0.053333882 0.02333626 -0.019450277 0.020854589 0.03561678 -0.0013734965 0.055326167 -7.512527e-05
0.052516393 -0.06874496 -0.07917328 -0.08146489 0.027031716 -0.04458017 -0.052136928 0.00061873347
0.02587959 0.012560638 -0.03742275 0.0040454175 0.08081986 0.034448266 0.090589896 0.071929395
-0.029424835 0.09099196 0.028600903 -0.0297559 0.024308871 0.063537076 -0.0071337335 0.017295128

fc2.bias f4 [84]
00000000: 2e07 563d 1150 c4bb c042 d53d 987a 0e3c
00000010: 406d a33d 6b26 4a3d 7315 5cbd 1350 92bd
00000020: fe8d b9bd 9889 d1bc 3dcc 0a3d e5c4 8a3c
00000030: 1eb8 86bd d06c 9d3d 9e0d 333d b9d5 643d
00000040: 47c7 adbd a54f f53c f354 823c 1b18 8b3d
00000050: c05e 2b3d a373 213d 6abc 1f3e aff3 4c3c
00000060: 2d5c 3ebd b1f1 ef3c e06f 5cbb 171b e83d
00000070: a66a c53d d65d 1bbd efdd cd3b d6ab 73bd
00000080: d39a 343c 6561 e9bb 6700 44bd 6715 c43d
00000090: 8f44 1c3c b632 6f3b 53ad 953c 133c d13d
000000a0: 5218 083e 2f97 9fbc 9358 663d 8779 a53d
000000b0: ee04 c9bd feb3 8cbc 3b01 b23d 7989 0e3d
000000c0: d9df 38bc 16b3 cdbd c861 2b3c 8079 85bd
000000d0: 81b8 0f3c 017b 043e 5581 3f3c 4946 08bd
000000e0: e1dd 1abd 9bb0 c0bd 0aad aebd 8f42 ef3c
000000f0: 9c6f 6e3d 2f00 14bb a67d 95bd addd 063e
00000100: 0b91 26bd 4f10 80bc 1e53 b33c efc6 83bd
00000110: 2b04 193d 54c5 4e3c e36d b23d 80ab ad3c
00000120: 8d89 8bbd 1e1c eabc 7728 e83d c864 48bc
00000130: 9a3d 193e 01e7 9fbd 001a 093e e492 0bbd
00000140: 7adb e23a da69 acbd 7e69 61bd 0114 063d
0.05225294 -0.00599099 0.10413122 0.008696221 0.07979822 0.049353044 -0.053731393 -0.07144179
-0.09060286 -0.025578305 0.033886183 0.01693959 -0.06578086 0.0768677 0.04371416 0.055867884
-0.08485275 0.029945204 0.015909648 0.06791707 0.041838408 0.03941692 0.15599218 0.012509271
-0.046474624 0.029290052 -0.0033636019 0.11333292 0.09639482 -0.037931286 0.00628256 -0.059490047
0.011023241 -0.007122206 -0.047851946 0.09574395 0.00953783 0.0036498732 0.018271124 0.102165364
0.13290527 -0.01948127 0.056236815 0.0807982 -0.098153934 -0.01717567 0.08691641 0.034799073
-0.011283838 -0.100439236 0.010460325 -0.06517315 0.0087720165 0.12937547 0.01168855 -0.033270154
-0.037809256 -0.09408685 -0.08529098 0.029206542 0.058211908 -0.0022583117 -0.07299356 0.131705
-0.040665668 -0.015632777 0.02189022 -0.06434428 0.03735749 0.012620289 0.087123655 0.021199942
-0.06813345 -0.02857786 0.11335843 -0.012231059 0.14964905 -0.078077324 0.13388824 -0.034075633
0.0017307841 -0.08418627 -0.055032246 0.03273392

fc3.weight f4 [10, 84]
00000000: d0cd f93d b07b bcba c82b 0c3e 3a07 0dbd
00000010: 1634 983d f70a 6bbd e32e 783d 8f7b 843d
00000020: 0763 363e a2d3 97bd f82d 8b3c bcc6 ddbb
00000030: 7131 bbbd 1f18 533e 7873 cb3d f390 cbbd
00000040: 401c 85bd 3afd 593d 8d7e c53d 6965 8ebc
00000050: 2c0b 46bc 5d26 143d aab3 0f3e acde 02bd
00000060: 3713 573d a916 cd3c 5dd8 dd3d 74f9 373e
00000070: 423e e4bc 5f11 85bd 7594 adbc 465b ccbd
00000080: ffa9 d0bc 76cb 46bc 610d 39bd 4700 023e
00000090: a60e cb3c 8a2b a7bd 0f4c 8fbd 35f4 553e
000000a0: 1073 393d a477 b6bd fe9a 2f3c fef0 313e
000000b0: b943 99bc 9b70 b03d c592 fc3c db71 a33d
000000c0: 614e 873e 5d5e c03d 717a a23d 7c97 11bc
000000d0: 96b1 6b3e 9614 833e 687b 573d 45d0 bdbd
000000e0: a7c6 7fbd 8a70 b7bc 5d55 113d c014 f3bc
000000f0: f11e 7f3d d7e2 8fbd 9008 eabc c808 8fbd
00000100: 2051 f3bb 1334 67ba e883 dd3d a860 7b3d
00000110: 6003 75bd 7b65 abbd 7948 4d3e 5029 4cbd
00000120: b650 9dbd 0451 0f3e e7f1 3ebd 764c 383d
00000130: 4dd6 f93d eea2 353d 6801 bd3d 9083 3dbd
00000140: 6fd0 393e 28ac d13d 431d a43d df6a c3bd
00000150: 4123 a53d b4e9 a33d f5cd c93d 4c7f 2dbd
00000160: 5c7d 563d bd5f b7bc 3c6e 193e ccbf 003c
00000170: 51ba f23b 3703 8b3d 627b 313e 11d8 97bd
00000180: 3d68 30bd f459 7e3e da20 853b 2cff 6cbc
00000190: 31cf 623d 6636 18bc e1d4 82bc 8713 113d
000001a0: 52b7 31bd 88e2 163e 3190 a83e 1b60 423d
000001b0: 8287 0b3d c3db f63d 3b2d aabd bd42 393e
000001c0: 77cd 2b3e 3cec 353d 1823 033d be22 87bd
000001d0: 05ab 3abd 6cc5 9fbd 17db 56bd 620c 0f3e
000001e0: 5dc1 c0bd 7834 55bd 556a f7bc 8985 823d
000001f0: b5f7 003e c6f8 d0bd 5ba7 853a 35d6 32bd
00000200: d626 9dbd 7896 9abc b1bb adbd 2501 0a3e
00000210: 4439 613b 3907 0fbe b9a9 90bd 3e73 b03d
00000220: 2f1d cb3d 8d69 213e 51fb 6c3e 7be8 983d
00000230: 7ae5 ae3d 4f3f f6bd e9f4 fdbc 252f cb3d
00000240: 43cf b13c a13f 293b 4267 443d 37d6 813e
00000250: 1f29 debd f921 d0bd ce1a 78bd bcb3 58bd
00000260: ae39 2dbb 43b0 5abd 89fe de3c 672e 66bd
00000270: a64e 8fbd 5e67 e3bc d477 183e e9c4 b93d
00000280: bada 2d3e 39a9 e33b 7fcf 913e 6289 8bbd
00000290: 8ce2 073e 211e 9e3d 1b97 e4bd 33e2 e6ba
000002a0: 9ac8 6ebd 65cb b33b 025e a63d 8e99 c63d
000002b0: 3733 943c 8812 de3b 0366 a43d 6d21 56bd
000002c0: 716d bebc fa99 683d 8568 d63c dd1d 8a3c
000002d0: c03c 2ebc 8e10 ecbc 2a27 d4bd d272 97bd
000002e0: f2c4 b5bb 51c4 e1bd 32a6 db3d 468a 793d
000002f0: b253 33bd a841 a93d d4e5 313c 0bec 0b3d
00000300: 7f10 1f3d de8b bfbd 8cf4 d1bd e666 553d
00000310: 0339 ebbd b0b0 cb3c 46d4 933d 5280 30bd
00000320: 1f08 12bd f7a7 a4bd 6b4b df3d 0719 0cbe
00000330: 9cae 80bd e91c 33bd 4c96 b9bc 598f 09be
00000340: 4105 9ebd aeb1 adbc 9453 72bc 87f4 63bc
00000350: de71 a03c f00e 923c 0725 183d e64c 393d
00000360: b828 83bd 40db 8d3d 7482 b8bd 7849 c0bd
00000370: 7d2e 11be 0dbe d2bc 7334 dbbd 01ba 27bd
00000380: e725 38bd db25 d7bc d98f c83d f889 493d
00000390: 0ee9 7d3c 8ed6 75bc 53a6 d7bd 8b65 dcbd
000003a0: 8a24 7e3d bed1 403d 7740 c23d 769a bdbd
000003b0: 4687 f3bc d040 923d 525e 823c 742b 3dbd
000003c0: 7ff8 1cb9 66ec 073d fe51 7b3d 285a 533c
000003d0: c58f a8bb f106 d23b afb5 133d 23e7 3bbd
000003e0: 02e1 0abd cc15 153c 5f4e 54bc f5ca 9b3d
000003f0: 918b fbbc 0f91 af3c a968 46bc 6a81 903d
0.12197459 -0.0014380123 0.13688576 -0.03443072 0.074318096 -0.057383504 0.06059159 0.064688794
0.17811213 -0.07413413 0.016989693 -0.0067680757 -0.091402896 0.2061467 0.09934133 -0.09939756
-0.06499529 0.05322001 0.09643278 -0.01738234 -0.0120876245 0.0361694 0.1403338 -0.031950638
0.05250856 0.02503522 0.10832284 0.17966253 -0.027861718 -0.06497454 -0.021188954 -0.099783465
-0.025471685 -0.01213347 -0.045178775 0.12695418 0.024787258 -0.08162601 -0.06996929 0.20893939
0.045275748 -0.089095384 0.010718105 0.17377087 -0.01870905 0.08615228 0.030831704 0.079807006
0.26426986 0.09392998 0.0793351 -0.008886214 0.23016962 0.25601643 0.052607924 -0.0926824
-0.06244531 -0.02239253 0.0354818 -0.02967298 0.062285367 -0.07025688 -0.028568536 -0.06984097
-0.0074254423 -0.00088197103 0.10816175 0.061371475 -0.05981767 -0.08368965 0.20047177 -0.049844086
-0.0768141 0.13995749 -0.046617415 0.044994794 0.12199078 0.044344835 0.09228784 -0.046268046
0.18145917 0.10237914 0.08013394 -0.095418684 0.08063365 0.0800356 0.09853736 -0.042357728
0.052365646 -0.022384519 0.14983457 0.007858228 0.0074074646 0.067877226 0.17332223 -0.07414258
-0.04306816 0.24839002 0.004062754 -0.014465135 0.055373374 -0.009290313 -0.01597065 0.035419013
-0.04338772 0.14734852 0.3292251 0.047454935 0.034064777 0.12053635 -0.08309408 0.18091865
0.16777597 0.044414744 0.03201589 -0.065984234 -0.045573253 -0.07801327 -0.052455034 0.13969567
-0.09411881 -0.05205199 -0.03020207 0.06373126 0.12594493 -0.102037 0.001019697 -0.043661315
-0.07673423 -0.018870577 -0.08483065 0.13476999 0.0034366408 -0.13967599 -0.07063622 0.08615731
0.09917676 0.1576292 0.23142745 0.07466217 0.08539863 -0.12023794 -0.031000571 0.099211015
0.021705275 0.002582528 0.047950037 0.25358745 -0.10847687 -0.1016273 -0.060572438 -0.052905783
-0.0026432085 -0.053390753 0.027220981 -0.056196596 -0.06997423 -0.02775925 0.14889461 0.09070761
0.16977969 0.006947663 0.2847862 -0.06813313 0.13270015 0.077205904 -0.111616336 -0.001761502
-0.058296777 0.005486893 0.08123399 0.09697257 0.018090827 0.0067771114 0.0802727 -0.05227797
-0.023245545 0.05678747 0.026172886 0.016859943 -0.010634601 -0.028816488 -0.103590325 -0.07394947
-0.0055471594 -0.110237725 0.107250586 0.060922883 -0.04378099 0.08264476 0.010858018 0.034160655
0.03883409 -0.093528494 -0.10251722 0.052100085 -0.114854835 0.024864525 0.07218222 -0.043091126
-0.035652276 -0.08039849 0.10903057 -0.13681422 -0.06283304 -0.043728743 -0.022654675 -0.13433589
-0.07715846 -0.021202888 -0.014790434 -0.01391328 0.019585546 0.017829388 0.037144687 0.04523935
-0.06404251 0.06926584 -0.09009257 -0.09389013 -0.1417789 -0.025725389 -0.10703363 -0.04094887
-0.04495802 -0.026263168 0.09793062 0.049203843 0.015497459 -0.015004767 -0.10529771 -0.10761555
0.062046565 0.047075026 0.09484952 -0.09257977 -0.02972759 0.07141268 0.015914116 -0.04618402
-0.00014969891 0.03318443 0.06135749 0.012899913 -0.005144092 0.006409519 0.03606194 -0.045874726
-0.03390599 0.009099435 -0.012958138 0.0760707 -0.030706199 0.021431474 -0.012109914 0.07055934

fc3.bias f4 [10]
00000000: 8c9d 403e 4a94 0e3f b47a 08bd 555e f1bd
00000010: df08 52bc 654d 2dbe 08ea e1bb c46f 0fbe
00000020: eafa 38be b2cc 29be
0.188101 0.5569502 -0.033320144 -0.117855705 -0.012819498 -0.16924055 -0.006894354 -0.14007479
-0.18064466 -0.16581991
