Rijul/Week4/cnn_digit.pth (torch, 180831 bytes, 10 tensors)

conv1.weight f4 [6, 1, 5, 5]
000000 80 2d 53 3e bd 3b 39 be 85 0a 11 bd 6a c6 19 be
       0.20622826 -0.18089195 -0.035410423 -0.15017095
000010 e9 48 df bd b2 2a 8f bd 26 8e 8f be 92 c8 7b be
       -0.109025784 -0.06990565 -0.28038138 -0.2458823
000020 c5 44 e7 bd 1f db 91 be c8 d5 5b bd f0 da 42 be
       -0.112924136 -0.2848749 -0.053670675 -0.1902883
000030 b6 c7 e2 bd fb a8 74 be 58 18 a7 bd 38 38 9b be
       -0.11073248 -0.23892586 -0.0815894 -0.3031633
000040 6f 98 a9 bd e9 79 97 be 99 d4 5a be be a7 7e be
       -0.082810275 -0.29585198 -0.21370162 -0.24868676
000050 ca 17 06 be 2f f0 a2 3c 67 fc 0a be c5 83 63 be
       -0.13095012 0.01988992 -0.13572846 -0.22218235
000060 ec 41 20 3e c4 10 9b be ec b8 3d be c0 9f aa be
       0.15650147 -0.3028623 -0.18527573 -0.33325005
000070 96 e4 fd bd da ea 48 bc 50 16 85 be 8f d3 be bd
       -0.12397115 -0.012263024 -0.25993586 -0.09317695
000080 6d 4f af be 28 3b 67 be 30 97 22 3e c1 6e 60 be
       -0.34240285 -0.2258116 0.15877986 -0.2191725
000090 b1 35 05 bd 02 e2 5b 3e 84 51 4d 3e b2 04 f2 3d
       -0.032521907 0.21472934 0.20050627 0.11817302
0000a0 bf 16 99 3e 6c e0 e2 3d b4 03 a4 3e 79 e0 dc 3d
       0.29900166 0.11077961 0.32034075 0.10785002
0000b0 8a 41 7e bc b1 f1 e3 bc 6e e6 66 3e 15 a2 42 bd
       -0.015518555 -0.027825208 0.2254884 -0.047517855
0000c0 02 7c 9a bd 3d 0b c9 bd f9 9b 44 be 59 bb 38 bd
       -0.07543184 -0.09816597 -0.19200124 -0.045100544
0000d0 55 95 b7 bd b2 2c 2d be 0a c0 11 3e fa 7c 9b be
       -0.0896403 -0.16911581 0.14233413 -0.30368787
0000e0 33 b4 a0 3c 9f 51 18 bd 32 02 05 be 58 d0 4d 3e
       0.019617176 -0.037187215 -0.12989119 0.20099008
0000f0 c1 37 aa be d7 91 80 be b6 ee ff bd 23 b1 3b 3e
       -0.33245662 -0.25111267 -0.124967024 0.18329291
000100 b1 62 16 3e ee 22 e1 bc 53 7b bc bd 2a 1f 3f 3d
       0.14686085 -0.027482476 -0.0920321 0.04666058
000110 fb cd ae 3e de 65 a1 3e d8 42 af 3d 6a 89 c7 bc
       0.34141526 0.3152303 0.08557671 -0.024357516
000120 6c 7c 45 3e 43 de a8 3e 5b 43 55 3e 3f 0a 6b be
       0.19285744 0.32982072 0.20826475 -0.22953127
000130 36 04 8d bd 21 20 a9 3d 38 f9 e7 bb 64 62 fa bd
       -0.06885569 0.08258081 -0.0070792697 -0.12225798
000140 2e 37 26 be bc 09 5c bd f2 f4 83 be 8d 49 95 bc
       -0.16231987 -0.05372022 -0.25772816 -0.018223548
000150 78 5b f5 3b b7 06 89 bb 82 12 df bc 3a a5 dc bd
       0.0074877106 -0.0041817087 -0.027230505 -0.10773702
000160 fd fd f7 bd 80 73 dc bc 96 fd d5 3d 80 70 3f bd
       -0.12108991 -0.026910543 0.10448758 -0.046738148
000170 3f 5c aa 3d bf 77 af bd 54 15 62 3e e5 6d 6b 3d
       0.08318376 -0.08567762 0.22078449 0.05747785
000180 2d 5c b5 3c fc 52 4f 3e 50 ce 47 3e 34 80 63 3d
       0.02213868 0.202465 0.19512296 0.055542186
000190 fb 3d 55 3c c3 a6 a1 bd e6 81 f9 3d eb 36 60 be
       0.013015266 -0.078931354 0.12182979 -0.2189595
0001a0 0f cd 16 be 03 c0 8d 3e 90 3a 32 3e 88 eb dd bd
       -0.14726661 0.27685556 0.17405152 -0.1083594
0001b0 ba 22 a5 be 1f d2 94 3d 91 fa b3 3e 67 9c 74 3d
       -0.32253057 0.0726664 0.35152104 0.05971947
0001c0 6d ad 4a 3e 2d 03 00 3e 55 b3 a4 bd e7 ea 46 3e
       0.19792719 0.12501211 -0.08042017 0.19425546
0001d0 71 76 21 3e 1a 04 62 bc cc a6 05 3e f0 db 95 be
       0.15767838 -0.013794923 0.13051909 -0.29269361
0001e0 41 fc 30 be 8f 3f a3 3d ad ff 7d bd e7 d3 f3 3d
       -0.17283727 0.07971107 -0.06201141 0.119056515
0001f0 73 92 7a be 70 83 46 3d 46 35 57 3d ca d0 84 be
       -0.24469928 0.048465192 0.05254104 -0.25940543
000200 8a ee 10 bd 8c 16 b0 be e8 45 8b be c6 55 85 be
       -0.03538374 -0.34392202 -0.27201772 -0.26042002
000210 76 dc dc be 24 99 47 be e8 3e e3 be aa 8e 93 be
       -0.43136948 -0.19492012 -0.4438393 -0.28819782
000220 ba 78 ef be 4c 69 c1 be 13 7a fb be d4 ae a5 be
       -0.46771795 -0.37775648 -0.49116573 -0.32359946
000230 94 c7 ca be 6e 65 90 be 0e 03 ad be b3 98 ed be
       -0.3960539 -0.28202385 -0.33791393 -0.46405563
000240 7b 61 92 be 06 61 d2 be b5 65 c5 be 55 e5 c4 be
       -0.28589997 -0.41089648 -0.3855416 -0.38456216
000250 d7 0a 54 be ca 47 64 be
       -0.2070726 -0.2229301

conv1.bias f4 [6]
000000 30 ae 61 bc 4d 0a 3c 3e 8b 3c ca 3e b9 db 03 3e
       -0.01377444 0.18363304 0.39499316 0.12876786
000010 ac 3e aa 3e 24 cf e5 3d
       0.3325094 0.112211496

conv2.weight f4 [16, 6, 5, 5]
000000 2f 1a 5c 3d 6d f6 79 bd 12 4e af 3c e4 d3 80 bd
       0.053735908 -0.061026026 0.021399532 -0.06290415
000010 dc 9b f8 bc de 0b e4 3c 21 12 d2 3d 87 27 63 3c
       -0.030347757 0.02783769 0.10257364 0.0138644045
000020 52 28 2e bd f1 f2 3a 3c 36 83 b3 bc 33 80 f3 3d
       -0.04251892 0.011410461 -0.021913152 0.118896864
000030 7a 3c f3 3c df 67 ca bd 4a 4a ac bd 6c f7 50 bd
       0.029691923 -0.09883093 -0.08412607 -0.05101721
000040 7c 11 96 3c 9e 69 b4 bc fb 66 9f bd dc 72 dd 3c
       0.018318884 -0.022023018 -0.07783314 0.027032308
000050 5e 06 31 3c 98 2c 15 3d 22 3b 96 3c c6 e6 55 3d
       0.010804741 0.03641948 0.018338744 0.052222036
000060 08 33 9e 3d 63 ff 62 3c bf c1 25 3c 7b fc 8b 3d
       0.07724577 0.013854834 0.010116993 0.06835266
000070 66 83 2e bd 75 3d ab 3d 0d 5b 18 bc e7 e7 31 bd
       -0.04260578 0.083613314 -0.009299052 -0.04343405
000080 52 8e 0e bd b5 2f 83 bd 49 56 b5 bd 2d fd b2 3d
       -0.034803696 -0.06405584 -0.08854348 0.08739696
000090 4c 2a 9f bc 0d e5 cb 3d 9f dd 96 3d 7d 0f b8 bd
       -0.019429348 0.09955797 0.073664896 -0.08987329
0000a0 e0 ea 80 bc 61 ea 4d bd 42 0c 0f 3e a4 9f 0d 3c
       -0.015736997 -0.05027235 0.1396952 0.008644018
0000b0 7e 8b e3 bd 4d 4c 31 ba fc 45 ec 3c 4f 8e 9b 3d
       -0.111105904 -0.0006763384 0.028841965 0.075955026
0000c0 5d 9d 57 bc d1 85 06 bc 46 c5 e7 3d 95 60 20 3d
       -0.013160077 -0.008210615 0.11316924 0.039154608
0000d0 ca 30 05 3d 71 99 8b 3c 7a ee 85 bd f8 60 05 bd
       0.032517232 0.01704094 -0.065396264 -0.03256318
0000e0 b2 63 f0 bd 34 2a 4a 3d a9 0f 25 3e 7b b7 0b bd
       -0.11737765 0.049356654 0.16119255 -0.034110527
0000f0 54 36 be bc 82 98 b6 3c 33 ba 53 3e 08 5d 2b 3e
       -0.023219265 0.022289518 0.20676498 0.16734707
000100 97 8c f0 bd 68 81 ad 3d ee b6 f8 3a 15 f4 4c 3e
       -0.117455654 0.08471948 0.0018975416 0.20014985
000110 e6 c6 65 3d 44 f3 95 bd 8f 01 67 3d 8c c7 d7 3c
       0.056097887 -0.0732179 0.05639797 0.026340269
000120 49 42 c6 3d 2b 92 4b bd 4d 5e 3d 3d 33 a4 cd 3d
       0.09680612 -0.049699944 0.04623251 0.10041084
000130 d2 79 1d bd 18 b4 e5 3c 56 eb 27 bc f4 0f 61 3d
       -0.038446255 0.028039977 -0.01024898 0.054946855
000140 cf 95 7e bd 6c 04 d6 3b 19 02 52 3b 95 dc 7b 3d
       -0.062154587 0.006531289 0.0032044707 0.06148966
000150 63 c6 08 bd cc ba 13 3c 46 75 1b 3c fe cb 1c 3c
       -0.03339232 0.009016704 0.009488409 0.00957012
000160 2f 51 98 3c 81 ab 97 bc 70 f4 fb 3c 03 48 8c 3d
       0.018593399 -0.018514397 0.030756205 0.06849673
000170 37 b1 01 3b 9e 88 6c 3b 6f 65 15 bd 10 c3 39 bd
       0.0019789466 0.0036092172 -0.036473688 -0.04535204
000180 98 c0 43 bd e1 b2 77 bd 15 d4 2d bc d7 ec 1e bc
       -0.047791094 -0.060473327 -0.010609646 -0.009700022
000190 bf 7e 8d bd aa e9 ac 3d 33 1e b9 bc f9 89 bc 3d
       -0.069089405 0.084430054 -0.022597408 0.09206004
0001a0 1c 29 af 3d e2 9d a2 3d 6d eb c4 3c bb cc 70 3c
       0.08552763 0.0794027 0.024038041 0.014697249
0001b0 5d dc a5 3d fa 4b 11 3e 58 73 80 3d 69 10 07 bd
       0.080986716 0.14189139 0.06272 -0.032974634
0001c0 24 d1 b4 bd b7 d7 1c 3d 3b 0b 25 3e 68 3c 77 3d
       -0.08828953 0.03829166 0.16117565 0.060360342
0001d0 6f 03 16 3d 93 a8 06 bc c6 f1 c2 3d 93 a1 39 3e
       0.03662437 -0.008218902 0.09518771 0.18128042
0001e0 90 1f 07 3d 00 74 3b 3d 2c 9e 7c 3d 8d 41 54 3d
       0.032989085 0.045764923 0.061674282 0.051820327
0001f0 70 f8 18 3e dd cf 05 3e 01 79 8d bd 20 af f6 bd
       0.14938521 0.13067575 -0.06907845 -0.12045121
000200 10 c0 c6 bc c9 07 c4 bd 33 73 96 bc ad 60 e0 3d
       -0.024261504 -0.095717974 -0.018365478 0.109559394
000210 78 00 60 3d b2 54 59 be a3 cf 3a be d4 1d 62 3d
       0.054687947 -0.21223715 -0.1824327 0.055204228
000220 5a c9 db 3d 5b 13 03 3e 52 9f 5f be 45 62 e2 bd
       0.10731764 0.12800352 -0.2183812 -0.110539
000230 83 f1 b4 3d 0f 36 ea 3d 93 f9 1d 3d b0 0e 34 be
       0.08835127 0.11436092 0.03856809 -0.17583728
000240 3f 39 99 bc e9 37 da 3d 44 3e 06 bd 3c ab 72 3d
       -0.018704055 0.10655195 -0.032774225 0.059245333
000250 31 41 99 bd 0e 46 a3 3d 23 8e 6f 3d ee 9c 81 bd
       -0.074831374 0.07972346 0.05848516 -0.0632876
000260 ae 10 01 3d 64 ed c7 bd d4 a8 56 bc 9c 96 2b bd
       0.031510048 -0.097620755 -0.013101775 -0.04189168
000270 2a 5c b3 3b a2 5a 7a bd 8a 7a c9 3c 82 a7 18 3d
       0.0054736333 -0.06112159 0.024594564 0.037269123
000280 75 61 d0 3d a3 8a d8 3d 0f a9 8b 3d fc c9 0c 3d
       0.101748385 0.10573318 0.06819355 0.034372315
000290 a8 17 b3 bc c4 8b b1 39 fb 8a bf 3d dd d8 c1 3d
       -0.021861866 0.00033864204 0.0935268 0.094651915
0002a0 79 0e f6 3c a1 d1 89 3c cd 3b a5 bc a8 08 a7 3d
       0.030036198 0.016823592 -0.020170117 0.08155948
0002b0 50 9f 0d bd d1 0e 6e 3d 98 fe e9 3c cd f1 82 3d
       -0.03457576 0.0581196 0.028563783 0.06393776
0002c0 89 2e bb 3d 9e 20 ad bd bb 4d 08 3d a7 05 53 bd
       0.09139735 -0.08453487 0.033277255 -0.051519062
0002d0 bb 33 cd 3d a2 f1 47 3d 5f d9 43 bd 02 dc 86 bd
       0.100196324 0.048814423 -0.047814723 -0.06584932
0002e0 38 24 9f 3c 96 7e 91 3d 70 31 ab 3b 63 31 34 bd
       0.01942645 0.071042225 0.0052243993 -0.04399241
0002f0 93 39 17 3d 3f 94 a1 bc 13 55 b8 3d 39 75 84 3d
       0.03692014 -0.01972401 0.090006016 0.06467671
000300 25 99 25 3d f5 f3 c8 3d 83 7d 81 bb f1 d6 fc bc
       0.040429253 0.09812156 -0.0039517297 -0.03086421
000310 df 82 ad 3d 0d 8c 0f bc a7 ff 42 bd d0 2c b7 39
       0.08472227 -0.008761418 -0.04760709 0.00034937868
000320 18 8d 59 3d 74 2d 40 3d 01 61 07 3c 5e 1a bc bc
       0.053113073 0.046918347 0.008262874 -0.022961792
000330 a5 49 b2 bd 66 9e 86 bd 0c 21 f9 bc 72 40 9a bd
       -0.08705453 -0.06573181 -0.030411266 -0.07531823
000340 84 30 19 3b 04 ec b3 bc 89 a3 13 bd c8 3b c4 bd
       0.0023374865 -0.021963127 -0.03604463 -0.09581715
000350 dd 9f 93 3c b0 6d df bb 22 ae 95 bd 9b f7 18 3d
       0.018020565 -0.0068184957 -0.07308604 0.03734551
000360 d7 37 2a 3c 91 28 b7 bc 59 5d 3a bc a6 a3 a6 bd
       0.01038929 -0.02235821 -0.011374795 -0.08136682
000370 f9 d7 af bc 6d f4 c9 3c 25 ba b9 bd e8 e7 85 bd
       -0.021465288 0.024652684 -0.090687074 -0.06538373
000380 e2 d5 96 bd 53 55 93 bd e3 eb d0 3c 59 5c 99 bd
       -0.07365014 -0.07194009 0.025503105 -0.07488317
000390 e3 1d d2 bc a6 99 4b bd 47 ec 05 3d 47 f7 12 3d
       -0.025649017 -0.049707077 0.032696035 0.035880353
0003a0 db 1b 87 3d e6 a1 a5 3c c0 81 be 3c ae 4a 3c bd
       0.0659711 0.0202188 0.023255229 -0.045969658
0003b0 d3 b5 17 3d 8c e7 93 3d 2e 8d 75 3d 65 82 ea 3b
       0.037038635 0.072218984 0.059949093 0.0071566575
0003c0 46 42 42 3d 29 63 d2 3c 92 d0 8b 3d 66 fa 55 bd
       0.047426485 0.025682049 0.06826891 -0.05224075
0003d0 23 93 12 bd 72 a4 00 3c 4b 68 2e bd 18 c6 8c 3d
       -0.03578485 0.007851707 -0.04257993 0.06873721
0003e0 b3 13 d1 3c 71 38 5f bc d3 a8 97 bd e6 bc f1 3c
       0.025522089 -0.0136242965 -0.074052475 0.02950902
0003f0 7b 21 6f 3d e5 c8 e5 3d 1b db cd 3d f2 95 10 3d
       0.05838154 0.11219958 0.10051557 0.03529925

conv2.bias f4 [16]
000000 2f 0d be 3d 42 7c 22 3d 8c cc 59 bd fa d9 81 bd
       0.09279858 0.039669283 -0.053173587 -0.06340404
000010 e4 ea 5b ba 9f b5 bc bc 61 06 c9 ba a3 1d ac 3d
       -0.00083891884 -0.023035822 -0.0015336984 0.0840409
000020 93 9b e0 3d bc 58 c0 bd d1 71 c1 3d 80 2d 84 3d
       0.109671734 -0.09391925 0.09445537 0.06453991
000030 5b a1 7c 3d 01 de 7d bd 19 84 84 bc 3f 4d 54 bd
       0.061677318 -0.061979298 -0.01617627 -0.05183148

fc1.weight f4 [120, 256]
000000 79 14 81 3c 14 37 01 bd ce 76 01 bd ce 01 a0 bc
       0.015756832 -0.031546667 -0.03160744 -0.01953211
000010 88 11 e3 3a b3 f9 98 3d 26 04 2c 3c aa 97 64 bd
       0.001732395 0.07469501 0.010499036 -0.0558087
000020 5b aa d6 3c f3 f9 b5 3c d7 9c 58 bd 9b c2 75 3d
       0.026204279 0.022213912 -0.05288395 0.060000043
000030 5e 2d 3f bd e6 df 13 3d 22 19 10 3d 87 91 c3 3b
       -0.046674125 0.036102198 0.03518022 0.005968276
000040 35 a7 cf 3c 03 e5 80 bd 03 ac fa ba e3 f1 7c 3c
       0.025348285 -0.062936805 -0.001912475 0.01543853
000050 04 fe 9f bb f6 2c e6 3c 92 3e 3a bd 48 c2 76 3c
       -0.004882576 0.02809761 -0.045469828 0.015060969
000060 75 cd 57 3b 23 c0 37 3d 1e ad 0b 3c 28 4a 13 bc
       0.0032928858 0.04486097 0.008525161 -0.008989848
000070 d2 1e 12 bd 2f 95 a1 bc 7e 66 3b 3b d2 92 2b bd
       -0.035673924 -0.019724457 0.0028595026 -0.041888066
000080 52 1e 56 bd 10 db 14 bc 36 c1 3a bd 48 79 56 3d
       -0.05227501 -0.009085432 -0.045594417 0.052361757
000090 97 e1 46 3c 36 b5 7f bd 44 68 c7 bb be 0f 22 3d
       0.012138746 -0.062428676 -0.0060854275 0.039565794
0000a0 e6 ee 1d 3d 83 35 b6 bc 52 59 a8 bb 15 d1 50 3c
       0.03855791 -0.022242313 -0.005137601 0.012745162
0000b0 86 f5 1d bd 1a 06 7e bd d5 30 22 3d e4 43 0d bd
       -0.038564228 -0.062017538 0.03959735 -0.034488574
0000c0 48 66 d9 bc 0b 29 c0 bc e2 94 79 bd cf 1a b0 bc
       -0.02653803 -0.02345707 -0.060933 -0.021497158
0000d0 a1 9e a2 bc 25 9c 63 bd 0f 3a ba 3b ba 32 e7 3b
       -0.01985103 -0.055568833 0.0056831907 0.0070556076
0000e0 cb f9 46 bd 65 f3 24 bd 58 46 7b bc 50 0c 45 3d
       -0.048578065 -0.04027118 -0.0153365955 0.048107445
0000f0 04 64 0e bd c5 92 77 bd fd 70 09 3d 85 d2 c6 3a
       -0.03476335 -0.060442705 0.03355502 0.0015168941
000100 ab 02 c4 3b 86 99 b1 3c 97 21 2c bc 04 66 dd bc
       0.0059817634 0.021679651 -0.010506055 -0.027026184
000110 68 bb 50 bd 33 93 10 3d 4b 71 9b bc 48 f4 dc bc
       -0.050959975 0.03529663 -0.01897492 -0.026971951
000120 a4 9c 1d ba 20 1b 4f 3d 0c 37 0c bd 18 b8 65 bd
       -0.0006012416 0.050562978 -0.034232184 -0.05608377
000130 37 76 40 3d eb 15 17 3d f9 72 67 3c 6f 68 63 3c
       0.04698774 0.036886137 0.014126533 0.013879879
000140 d7 75 36 3d 2e c2 9d 3d d8 90 a5 3c aa 2d 21 3d
       0.044545975 0.077030525 0.020210668 0.03935019
000150 25 fd ba bc bd 14 1b 3d 2c 5a 81 3d 99 25 0b bd
       -0.022825787 0.037861574 0.06316027 -0.033971403
000160 2b 69 d3 bb a0 b1 10 bd a5 dc 24 bd 13 48 44 3b
       -0.006451746 -0.035325646 -0.040249486 0.0029950186
000170 c9 5c e1 3c 16 ca 4f 3d ce 1a 7d 3d 31 2f 97 ba
       0.027510064 0.050729834 0.06179314 -0.001153445
000180 c6 d2 9c 3c 21 8e a6 3c 2f 20 e3 3b 39 c6 63 bd
       0.019143473 0.020331444 0.006931327 -0.05560896
000190 fa f8 a3 bc 7f 3f 09 bd c8 69 c6 3a 9a 53 15 3c
       -0.020016182 -0.03350782 0.0015137726 0.00911417
0001a0 20 61 aa bc 5b 52 48 bd 52 bd 94 3c 7f b6 40 3d
       -0.020798266 -0.048906665 0.018156681 0.04704904
0001b0 c8 a0 4d bd f1 d6 8e 3b f3 51 1f 3c 07 73 7a 3c
       -0.05020216 0.004359119 0.009724128 0.015286214
0001c0 9d f1 53 bd bd e2 f1 3c 74 5c 65 ba c2 da 05 bd
       -0.051744092 0.029527063 -0.00087494333 -0.032679327
0001d0 1f 25 b5 3c cf 08 4a bd 89 44 d5 3c bb db bc 3b
       0.022112427 -0.049324807 0.026033657 0.0057634986
0001e0 58 b3 7b bd 08 0d c9 3c c7 9e bd bc 5c 05 71 3d
       -0.061450332 0.024542347 -0.023147 0.058843
0001f0 84 0e 0a bd c1 88 20 bd 4a 52 f1 3c e3 d2 7a 3d
       -0.03370525 -0.03919292 0.029458184 0.061236273
000200 bb 01 03 bd c9 e3 15 3c af a2 3c 39 75 26 86 3c
       -0.031984072 0.0091485465 0.00017989682 0.01637576
000210 eb 36 83 3d 45 2d 2c 3d 39 4b f4 3c d0 f0 6d bd
       0.06406959 0.04203536 0.029821025 -0.058090985
000220 e7 40 67 bd 2c 41 6c 3d 27 f5 8f 3d e7 c2 75 bc
       -0.05645838 0.05767934 0.07029181 -0.015000082
000230 70 35 57 bd f5 cd 0b 3d 8a 9f 80 bd 7c 6b 13 bd
       -0.052541196 0.034131963 -0.0628043 -0.035991177
000240 2e f9 83 bd b5 34 94 bc ab b4 7b bc 87 ed 5c 3d
       -0.06444012 -0.018091539 -0.015362899 0.05393746
000250 68 a1 5b 3d 77 47 89 3c 1b 4b a4 bb 19 cf dd 3c
       0.053620726 0.01675771 -0.005013836 0.02707629
000260 e1 dd 15 3b 28 22 73 3d 78 20 51 bd 90 0b c5 bc
       0.0022867846 0.059358746 -0.051056355 -0.024053365
000270 18 60 1c bd 0d 53 d2 3d 81 c0 5e 3d 0b b3 55 bd
       -0.03817758 0.10269747 0.054382805 -0.0521727
000280 d1 03 07 3d f5 3d 3e 3d 78 dc 08 bc d2 65 8c bc
       0.032962624 0.046445806 -0.008353345 -0.017138395
000290 28 8d 4e 3d 98 ea 88 bd c7 16 20 3d 85 15 83 bd
       0.050427586 -0.0668537 0.039084222 -0.06400589
0002a0 ec 39 e5 39 65 db ca 3c dc 66 a2 bd 76 a0 e4 3c
       0.0004372144 0.024762819 -0.07929775 0.027908545
0002b0 a6 4a 7f 3d 01 f4 2f bd 77 a3 ef 3c e0 bf 09 3d
       0.06232705 -0.04295731 0.02925275 0.033630252
0002c0 3c f9 d6 3b 8b 73 60 3d b0 fc 0b bd 29 31 72 3d
       0.006560473 0.05479769 -0.03417653 0.059128914
0002d0 a0 d3 9e bc 9f 77 1e bd 9b bc 68 3d 78 5f 8f 3d
       -0.01938802 -0.0386883 0.056820493 0.07000631
0002e0 73 5d 23 bc 03 1b ae bd 98 0b 63 3d 60 38 dd bc
       -0.0099710105 -0.08501246 0.05543098 -0.02700442
0002f0 bb b9 1a 3d 40 fa 52 3d 16 f2 82 3d ba ee 95 bb
       0.037774783 0.05150819 0.063938305 -0.0045755776
000300 59 1d 75 3d ab d6 62 bd 41 0c 6f bd 1d 38 47 bd
       0.05984244 -0.055380505 -0.058361296 -0.0486375
000310 14 e0 19 bd c2 83 1d 3d 96 7d 16 3a 08 40 d8 3c
       -0.037567213 0.038455732 0.00057407597 0.02639772
000320 e9 44 ad bc 1a 20 70 3d 8f 5f 15 3d 8f 11 b1 3c
       -0.021151023 0.058624364 0.036468085 0.021614818
000330 f3 a6 29 bd c7 55 4f bc 9e 17 ac bb 4d 3c 4d bd
       -0.04141898 -0.012654728 -0.005251839 -0.050106335
000340 ef 8e b1 bc 2d 51 02 3d 6c f9 be bb fe 4f 5d bd
       -0.021674601 0.031815697 -0.0058280732 -0.054031365
000350 fb 75 57 3d 3d 8c 3a 3d ec 61 20 3d 72 37 16 3d
       0.05260275 0.045543898 0.039155886 0.03667397
000360 34 9f 20 3d 66 72 ca bb 03 e0 2e bd 1c 72 36 3d
       0.039214328 -0.006178188 -0.042694103 0.044542417
000370 3f ec 4e 3d 12 2b d7 3c a4 27 ed bc 0a 62 bc 3b
       0.05051827 0.026265655 -0.028949566 0.005748992
000380 c6 bf 92 3b c8 dd 5e bd 9e 7e 2f 3d 34 14 ba ba
       0.0044784276 -0.054410726 0.04284536 -0.0014196695
000390 2b 9f 1a 3d 56 cf 10 bd 1e 58 ca 3c c6 15 61 3d
       0.03774945 -0.03535398 0.02470022 0.054952405
0003a0 28 ad 19 bd 9f c7 ca 3c 53 bc 7c 3d 9d fe f0 3c
       -0.03751865 0.02475339 0.061703037 0.029418284
0003b0 29 b3 56 bb 39 3a 75 bd 04 af 51 3d 0e d3 91 3c
       -0.0032760596 -0.05986998 0.0511923 0.017800834
0003c0 35 95 6b bd 6f 90 2d bc 58 f3 6f bd 7e 76 4c bd
       -0.05751534 -0.010593518 -0.05858168 -0.04991769
0003d0 a0 28 54 bd 4f 68 50 3d c2 5b 1e bd c0 8e 1c 3c
       -0.051796556 0.050880726 -0.038661726 0.009555519
0003e0 48 e1 df 3c d2 7b 75 3d 4e c1 79 3d 74 b8 2b 3d
       0.027329102 0.059932537 0.060975365 0.041923955
0003f0 70 ee 44 bd ee 15 b9 bc a7 6a 3a 3d cd a6 36 bd
       -0.048078954 -0.022593465 0.045511868 -0.044592667

fc1.bias f4 [120]
000000 22 fb 74 3c c3 16 8b bc 44 91 e2 3c 2c bf a9 3c
       0.014952453 -0.016978627 0.027657159 0.02072104
000010 a2 01 44 3d cb 31 69 bd f8 9c f2 3c e9 7f 57 3d
       0.04785312 -0.056932252 0.029615864 0.05261222
000020 70 3d 66 bc 27 fc 7f 3d d9 04 67 3d c6 7c b9 3c
       -0.014052734 0.06249633 0.056401107 0.022642504
000030 ab 65 bf 3b d1 f2 62 bd 42 71 5e 3d 1d d7 fa bc
       0.005840977 -0.05540735 0.05430723 -0.030620152
000040 d0 17 9d bb b2 b2 58 bd 4b 45 9a bc 86 ef ee bc
       -0.0047940984 -0.052904792 -0.01883187 -0.029166948
000050 e8 53 3c 3d 63 28 9c 3c 3d a6 a2 3d 7c bc 19 3c
       0.045978457 0.019062227 0.07941864 0.009383317
000060 e7 67 4b 3d ab 64 3b 3d 78 05 0c 3b 5f f2 3a bc
       0.049659636 0.0457503 0.0021365564 -0.011410325
000070 97 0f 2b 3d 25 8c 67 3d df 08 49 bc df e7 29 3d
       0.041762915 0.056530137 -0.012270181 0.041480895
000080 80 1c 61 3b d1 e7 42 bb a4 ef 22 bd 99 16 4f 3d
       0.0034349263 -0.0029740224 -0.03977932 0.05055866
000090 80 a3 26 3d 25 0a 5e bd 56 39 55 bd 4d a6 6e 3a
       0.04068327 -0.054208893 -0.052056633 0.000910376
0000a0 40 5f 0b bd 33 62 2b 3d 3c 6e 78 3d 62 2f 4e bd
       -0.034026384 0.041841697 0.060652003 -0.050338157
0000b0 c3 e0 71 bd 9a db 33 3d a9 32 66 3d bb b4 74 3d
       -0.05905224 0.0439106 0.056200657 0.05974267
0000c0 ac 2a 3c bd 05 2e 15 bc 40 83 d4 bb fb a1 45 bb
       -0.045939133 -0.00910521 -0.006485373 -0.0030156362
0000d0 22 5e 24 bc 24 b3 af 3a 7e 1d 47 bd a5 b2 7f bc
       -0.010032209 0.0013404828 -0.04861211 -0.015606557
0000e0 f0 05 df bc 42 5b 47 bd 31 d0 8c bc dc c9 27 bd
       -0.02722451 -0.048671015 -0.017189117 -0.040963992
0000f0 c9 df 6a bd 9b 30 db 3c da c0 12 bd 00 ce ee 3c
       -0.057342324 0.026756575 -0.03582845 0.029150963
000100 f1 56 04 3d a4 39 9e bc 2f 46 54 3c 6b 6b a2 3c
       0.032309476 -0.019314595 0.012956186 0.019826612
000110 b6 3b 6e bc d7 12 09 3d 88 a4 82 3d 88 85 e0 bc
       -0.014540603 0.033465233 0.06379038 -0.027407423
000120 80 88 93 bb 65 42 b2 3b bd 14 b3 3c d9 d6 3a 3d
       -0.004502356 0.0054400438 0.021860475 0.04561505
000130 cd e9 e4 bc 4b 28 79 bd b2 17 38 bd 82 38 25 bd
       -0.027943516 -0.060829442 -0.044944473 -0.040337093
000140 0d ad 19 3d 26 08 37 bd 1a d5 ec bc 6e 02 86 3c
       0.03751855 -0.044685505 -0.028910208 0.01635858
000150 c6 86 a1 bc 8a 74 5c 3d 73 17 ce 3c e0 0e f7 3c
       -0.019717585 0.053822078 0.025157666 0.03015846
000160 48 bc b4 3c f0 06 20 bd c7 ad fd bb e3 2a 52 bb
       0.022062436 -0.039069116 -0.007741663 -0.003206902
000170 3f fc f2 3b 49 2a 1e 3d cb 4f 7c 3d 2d c2 c5 bc
       0.007415324 0.038614545 0.061599534 -0.024140442
000180 f5 05 17 bd d1 ed b8 bc d4 ee 1e 3d 3f f5 7a 3d
       -0.036870915 -0.022574337 0.038801983 0.06126904
000190 8c 7c 44 bc 95 95 77 bc ef 9f 4e bd dc 4f 7c 3d
       -0.011992585 -0.015111347 -0.050445493 0.061599597
0001a0 fa 91 92 bc 3a 07 38 3d 3a d2 1a bd 96 f9 50 bd
       -0.017891873 0.044928767 -0.037798144 -0.051019274
0001b0 ea 46 82 bc 66 e3 11 bd ce a2 a3 3c ae ff 1d bd
       -0.015902955 -0.035617255 0.019975092 -0.038573913
0001c0 77 29 b3 bb db bb 13 bd d5 0d 63 3d ab f8 1d 3d
       -0.0054675895 -0.036067825 0.055433113 0.038567226
0001d0 70 69 46 3d 0a b0 74 bd b4 c8 cb 3c 7e 19 d1 bc
       0.048440397 -0.059738196 0.024875976 -0.025524851

fc2.weight f4 [84, 120]
000000 9d f7 15 bc 50 c1 03 3e 2f 44 c4 bd cc 69 b4 3d
       -0.009153274 0.12866712 -0.095833175 0.08809242
000010 cd eb 7a bd 7f a7 1c bd 2d 79 4c 3d ef b0 8f bd
       -0.061260033 -0.038245674 0.04992025 -0.07016169
000020 20 62 50 bb 39 76 f3 3c 6e 1c a3 3c c7 fb 7f bd
       -0.0031796768 0.029719459 0.019911017 -0.062495973
000030 90 f0 99 bd da 39 3c 3d 3e c7 a4 bd 18 be af 3d
       -0.07516587 0.04595361 -0.08045815 0.085811794
000040 33 1e 00 3e 81 81 92 bd a1 3c 88 3d 28 0a 53 3d
       0.1251152 -0.07153607 0.06652189 0.051523358
000050 1d 3a d7 3c d3 84 a1 bd a3 5b e0 3d d7 83 91 bc
       0.026272828 -0.07886662 0.10954978 -0.017763061
000060 b3 04 e9 bc ca 5f e9 bc 64 d0 d6 3b ce c1 24 bd
       -0.028444624 -0.028488059 0.006555604 -0.04022389
000070 60 20 23 bc 8f 1d e5 3c 91 0d b8 3c ee 56 b3 bd
       -0.009956449 0.027968196 0.022467406 -0.08756815
000080 60 6d f1 bc 12 39 e4 3c 60 27 85 bd 7e 7e 93 bd
       -0.0294711 0.027859244 -0.06501651 -0.07201861
000090 c3 4d 02 3d d7 72 68 3d ec cd 3f bc af 5b 9d bc
       0.03181244 0.056750145 -0.01170681 -0.019208757
0000a0 e1 df 8f bd 88 f2 0c 3d ec 48 c8 3b a0 90 00 bd
       -0.070251234 0.034410983 0.0061122086 -0.031387925
0000b0 80 d9 2f bc 48 d6 25 bd 78 4a 6a 3d 72 d7 40 bd
       -0.010733008 -0.040487558 0.057199925 -0.047080465
0000c0 a9 95 a9 bd 59 c7 4c 3d 5e 06 4c 3b 6f 29 e1 3d
       -0.082804985 0.0499948 0.0031131725 0.10994231
0000d0 46 9f b9 bc 57 f7 74 bd ea af ab 3d 2e da bc bd
       -0.022658955 -0.059806194 0.08383162 -0.09221302
0000e0 97 4b 06 bc 01 f2 1e 3a 32 2e 64 bd a2 6b b3 3d
       -0.008196733 0.0006063283 -0.055708118 0.08760764
0000f0 ef 34 b6 bd 94 c1 ad 3c a6 55 b7 bd 88 a6 76 bb
       -0.08896815 0.02121047 -0.08951883 -0.0037635881
000100 24 d2 12 3e 5a c3 8a 3b 86 18 26 3d 53 bc 28 3c
       0.14337975 0.0042347135 0.04055073 0.010298806
000110 b0 b1 72 bd 00 08 69 3d 87 bc 58 3c dc 50 36 bd
       -0.059251487 0.056892395 0.013228542 -0.044510707
000120 6f 49 ab 3d f2 d9 40 3c 94 7d 6e bc c2 ef f4 3c
       0.08363616 0.011770712 -0.014556307 0.029899482
000130 40 d4 f2 bc 62 75 9f bb 91 b3 a8 bd 45 6c 92 bd
       -0.029642224 -0.004866288 -0.082373746 -0.07149557
000140 e9 c7 2a bd db 26 7b 3d 04 35 8e 3d fa 62 bf bd
       -0.041694555 0.061316352 0.06943706 -0.0934505
000150 9a db ad bd 65 e8 a7 bd c7 33 3b 3d ef fe ed 3d
       -0.08489151 -0.081986226 0.045703676 0.1162089
000160 54 2d 07 3d 33 06 95 3c 85 57 a4 3d d4 b1 8d bc
       0.033002213 0.018191433 0.080245055 -0.01729671
000170 2b b1 82 bb 12 0b 33 bd cd d2 92 bd 1a 3d 03 bd
       -0.003988405 -0.04371173 -0.07169113 -0.032040693
000180 95 d5 6c 3d 5d 78 4d 3d 45 a0 d4 3d 76 43 07 3d
       0.057820875 0.050163615 0.103821315 0.03302332
000190 2a 22 a5 3d fd 1e 7b 3a 14 c8 0d bc 37 2a 1f bb
       0.08063157 0.0009579508 -0.008653659 -0.0024286637
0001a0 74 22 d6 bd 5e d0 2a 3d d4 fd a0 bc b7 db e1 bd
       -0.1045579 0.04170262 -0.019652285 -0.110282354
0001b0 8b f8 65 3d 76 d8 a6 3c c7 93 95 3c 91 85 ba 3d
       0.056145232 0.020366888 0.018258942 0.09107507
0001c0 5e c0 08 bd 4e b3 b4 bd 29 7f b5 bd 98 89 9e 3d
       -0.03338658 -0.08823262 -0.088621445 0.07741088
0001d0 e4 8a 49 3c 8c 45 e7 bc 0f 04 17 bd 6b ab 6d 3d
       0.0123011805 -0.028231405 -0.036869105 0.058024805
0001e0 12 d9 94 3c df 90 82 bd 95 42 12 3a 91 a0 b0 3d
       0.018169913 -0.06375288 0.00055793795 0.086243756
0001f0 70 c5 6d 3d 76 6d 5d bd 1c 68 ad 3c 50 ab ae 3d
       0.05804962 -0.05405947 0.021167807 0.08528769
000200 c8 e9 41 3d 6d d5 f1 3b 79 d0 e1 bc 7d b9 6f 3d
       0.04734209 0.0073801787 -0.027565228 0.058526505
000210 af 50 b5 bd c7 88 8a 3d 8e 10 b2 bd b6 d4 ab bc
       -0.0885328 0.067643695 -0.08694564 -0.020975452
000220 8b 73 b6 bd 38 68 ba 3d d2 94 5e 3d 96 38 90 3d
       -0.08908757 0.091019094 0.054341145 0.07042043
000230 9f 50 9f bd d3 6e d1 3c 77 d5 a9 3d 5c ad 1d bd
       -0.07779049 0.02556554 0.08292668 -0.038495407
000240 ec 4e 8e bd 80 bb a9 3d 68 26 ea 3c 27 9b b5 bd
       -0.06948647 0.08287716 0.028582767 -0.088674836
000250 0b 2f 86 3d 43 d8 8d bb e4 f8 ed 3b e1 19 a8 3d
       0.065519415 -0.004328759 0.007262336 0.08208061
000260 e0 66 32 3c a6 6e 5a 3d 5d ae 91 bd 01 b8 9a 3d
       0.010888785 0.05332818 -0.07113335 0.07554627
000270 41 07 05 3d 79 d6 bf b9 e0 37 0a bd 27 01 a6 3d
       0.03247762 -0.00036590153 -0.033744693 0.081056885
000280 74 f5 43 bd 1f 46 b1 3d c9 e9 a9 3d 4d 16 38 bd
       -0.047841504 0.08655953 0.08296544 -0.044943143
000290 c3 33 29 bc b5 60 a0 bd 87 b7 4d bd 33 f6 cf bc
       -0.010327282 -0.078309454 -0.050223853 -0.025385952
0002a0 38 e8 2d bd d5 6a 7b 3d c6 c1 7d bd 89 5d 68 bc
       -0.04245779 0.06138118 -0.061952375 -0.014182457
0002b0 ba 15 86 3c be 7e 65 3d d4 df 5b bc 37 dd 85 3d
       0.016367782 0.056029074 -0.013420064 0.06536334
0002c0 a6 a3 2b 3d 58 c7 b8 3d da c5 ca bd d1 21 9a 3d
       0.041904114 0.09022397 -0.099010184 0.07525981
0002d0 8a 86 90 bd 95 42 ad 3d 64 e2 44 3d c8 82 37 3d
       -0.07056911 0.08459965 0.048067465 0.044802457
0002e0 b9 44 fa 3c 8f 29 a7 3b 22 cc 82 3c 1b 80 a3 bd
       0.030550348 0.0051013897 0.015966479 -0.079834186
0002f0 56 1e 86 bd 4a ea c2 bc 51 0f dc bd 4c 0d a8 bd
       -0.06548755 -0.023793358 -0.10745109 -0.08205661
000300 12 43 84 3a c8 d7 d4 3c 28 1f b7 bd 19 c5 b2 bd
       0.0010090789 0.025981799 -0.089414895 -0.08729
000310 d6 76 35 bc 16 94 01 bd 60 16 7f 3d 72 f8 53 bc
       -0.011075696 -0.031635366 0.062277198 -0.012937652
000320 09 0f 13 3d f3 ad 87 3d b2 15 a2 3d 06 ad 87 3d
       0.03590301 0.06624975 0.07914294 0.066247985
000330 55 11 a0 3d eb 8b 43 3c 4c f6 0d 3d c2 27 5b 3d
       0.07815806 0.0119352145 0.034658715 0.053504713
000340 47 64 6f bd c1 e3 36 bd 5d 33 8e ba 3e 4f 8f bd
       -0.05844524 -0.044650797 -0.0010849048 -0.06997536
000350 eb ad b3 bb 69 5d 9c 3d 30 90 c3 3d b0 86 8b 3d
       -0.005483379 0.07635004 0.09548986 0.06812799
000360 8d 85 93 3d 92 6c 14 3d 6d 97 8b 3d bf 72 0d 3d
       0.07203207 0.036236353 0.068159916 0.03453326
000370 a9 14 b9 bd 99 ee 9a bd 8e f8 90 3d 0e df 50 3d
       -0.09037144 -0.0756504 0.07078658 0.05099397
000380 ef 38 34 bd e8 62 d6 3c ec 4a d0 3d a3 17 32 bb
       -0.04399961 0.026170209 0.1017054 -0.0027174733
000390 68 f8 e4 3c 38 62 2c 3d 85 26 23 bb 3e 5f 8e bd
       0.02795048 0.042085856 -0.0024894786 -0.0695176
0003a0 30 84 5f bd 15 2e 8d bd 21 ea 96 bd e3 d0 67 bc
       -0.054569423 -0.06893555 -0.07368875 -0.014148924
0003b0 94 9d 7b bd fe e0 a6 3d 4f 3a 90 bd 4a db 9c 3d
       -0.061429575 0.081483826 -0.070423715 0.076590136
0003c0 23 89 85 3d ca d1 6c 3c 7e 27 41 3d 85 b1 87 3c
       0.065202974 0.0144543145 0.047156803 0.01656414
0003d0 f9 03 0d 3c 54 3d 78 bd b8 0a 94 3d 7f 62 7b 3d
       0.008606904 -0.060605362 0.07228607 0.06137323
0003e0 ba fa 12 bd 67 14 81 3c 91 83 c7 bb cf 9e 8a ba
       -0.035883643 0.015756799 -0.006088682 -0.0010575893
0003f0 03 20 e5 3c d6 2d c3 bc d0 fe 0e bd dd 30 97 bb
       0.027969366 -0.023825567 -0.034910977 -0.0046139793

fc2.bias f4 [84]
000000 4b 00 0e 3e 9f 3e 55 3d b1 4e 38 3c dc 69 3c 3d
       0.138673 0.052061673 0.01124923 0.045999393
000010 5c 94 8b bd f3 62 a5 bd 1b 5b 67 3d e1 bc 95 bd
       -0.06815407 -0.08075514 0.05648337 -0.073114164
000020 53 e5 a8 3d be e9 a0 39 16 06 88 bc ce 23 a7 3d
       0.08246865 0.0003069173 -0.016604465 0.08161126
000030 d8 5c 23 3d 0e f0 91 bd b1 0f 7f bd b4 d4 5e 3c
       0.039883465 -0.07125865 -0.062270824 0.013600517
000040 ef 41 82 bd 5b 7a c7 3d 32 90 f9 3c e3 22 8a 3c
       -0.06360232 0.09740134 0.030464265 0.016862338
000050 15 29 4a 3d 59 b8 0d 3d b1 17 38 3c b0 b3 cf 3c
       0.049355585 0.034599636 0.011236117 0.025354236
000060 1f 00 89 bc da 98 c0 3c 40 40 11 3d 82 23 b8 3d
       -0.01672369 0.023510385 0.035461664 0.089911476
000070 3e 0a ad bb 1d 52 29 3b 10 58 1c bd 3d dc 9f 3c
       -0.005280762 0.0025836297 -0.03816992 0.019514197
000080 8a 24 a4 bd cb fd 83 3d 09 44 ab 3d 40 12 1e 3d
       -0.08014782 0.064448915 0.08362586 0.038591623
000090 df a8 41 bd ff 86 89 3d b0 24 68 bd 38 bd 02 3e
       -0.04728019 0.067152016 -0.056675613 0.12767494
0000a0 22 f3 6c 3d 1b a8 a8 3d 8e cc 7b bd fa 3d 96 bd
       0.057849057 0.082351886 -0.061474375 -0.0733604
0000b0 ea af 9f 3d 29 9f e2 3d 4d 4e 63 bd c2 96 43 3d
       0.07797225 0.11065514 -0.055494595 0.047751196
0000c0 37 18 88 3d 39 a7 0c bc 64 d2 89 bd f3 4c 2c bd
       0.066452436 -0.008584791 -0.06729582 -0.042065572
0000d0 6e 95 d7 3b 1f 0b 48 3d e6 55 68 3d b4 ca 88 3c
       0.0065790927 0.04883873 0.056722544 0.016698219
0000e0 16 73 a0 3d 1b f4 06 b9 d8 21 b9 3d d2 8a 5a bd
       0.07834451 -0.00012870172 0.09039658 -0.053355046
0000f0 69 76 80 3d 9d 5a 6e 3c 59 31 04 3c 75 1f 10 3d
       0.06272585 0.014547971 0.008068406 0.03518625
000100 81 0a 86 bc c4 3c 25 bd 98 19 77 3d 82 aa 9e bc
       -0.01636243 -0.040341154 0.060327142 -0.019368414
000110 f5 ab 54 3b e7 e5 16 3d fe 34 dd bb 81 64 8c 3b
       0.0032451127 0.036840346 -0.006750702 0.004284442
000120 b4 c7 9d 3d 53 e0 61 3c c6 24 1b 3d e3 08 43 bd
       0.07704106 0.013786393 0.037876867 -0.047615897
000130 df 79 bb 3d 9a 16 60 3c 85 c3 9b bd 8a e6 19 bd
       0.091541044 0.013677264 -0.07605652 -0.037573375
000140 38 de 10 bd aa 76 b3 bd d9 08 a1 3d 32 2e ad 3d
       -0.035368174 -0.08762868 0.07863016 0.08456077

fc3.weight f4 [10, 84]
000000 f8 39 83 3d 6c 35 34 3d 41 1d 97 bd 0c 32 8c bc
       0.06407541 0.04399626 -0.073786266 -0.017113708
000010 2d 78 a2 3d 1d d3 5c be 45 1f b9 3d 21 43 58 bd
       0.07933078 -0.21564908 0.09039167 -0.052798394
000020 85 96 87 3d 17 30 b2 3d 33 19 1b 3b 66 7b fc bd
       0.06620506 0.08700579 0.0023666143 -0.12328224
000030 e1 03 08 bd 3e 86 1a 3d 5b c6 ef bd 5a fa ed bd
       -0.033206824 0.03772568 -0.11707755 -0.116200164
000040 10 2e ae 3d d5 3b bb bd e5 ee c4 3d c0 3e f7 3c
       0.085048795 -0.091422714 0.09615878 0.030181289
000050 68 3b ff bd 9c bd 94 bd fb 75 25 bd ac c8 0f bd
       -0.12462503 -0.072627276 -0.040395718 -0.035103485
000060 b0 fe f1 ba 36 80 ac 3d c0 11 bc bd 81 4c 3e 3d
       -0.0018462744 0.08422892 -0.09183073 0.04645968
000070 37 0d b0 bd f1 62 28 bc 50 e2 8b bd f7 f3 4f 3e
       -0.085962705 -0.010277496 -0.06830275 0.20307909
000080 40 d7 bd 3a 1a ab c6 3d c3 84 e7 bc dd 79 f4 39
       0.0014483705 0.09700604 -0.028261548 0.00046630102
000090 e7 ca ac 3d 2d 33 99 bd fd c4 d4 bd 67 16 ed 3d
       0.08437138 -0.07480464 -0.10389135 0.115765385
0000a0 ee 46 fd bd 99 74 38 be 29 a1 cc 3d 52 3b b5 3d
       -0.123670444 -0.18013228 0.09991676 0.08849205
0000b0 f1 8c 0b 3e c1 c1 b1 3d ca 17 d2 3d 0c 32 38 3e
       0.13627984 0.08679534 0.10258444 0.17987841
0000c0 eb 8e c9 3c 57 3a 05 bd de dc f4 bc 32 96 9f 3d
       0.024604281 -0.03252634 -0.029890474 0.07792319
0000d0 8b 1b 05 3d 77 96 26 be 11 56 c2 bd 25 96 09 be
       0.03249697 -0.16268335 -0.09489072 -0.13436182
0000e0 e6 e4 a4 bd 65 e3 97 3d 18 9a 09 3e 19 93 bd bd
       -0.080514714 0.07416419 0.13437688 -0.09256572
0000f0 e1 ae 26 be 9a a7 b6 bd f6 7c d6 3d bd 0a 9c 3a
       -0.16277649 -0.08918686 0.10473053 0.0011905056
000100 cd 1a 67 3d 9e 95 47 3e 9c 52 ad bd 7a b5 80 3d
       0.056422044 0.19490668 -0.08463022 0.06284614
000110 bf 20 07 be 0f 7d 1e 3e b9 96 48 be 51 69 77 3c
       -0.13196085 0.15477394 -0.19588746 0.015100793
000120 d2 46 8d 3d 1c 10 8f bd 2e f9 f5 3d 89 c9 47 3d
       0.068982735 -0.069854945 0.12010418 0.048776183
000130 13 0a b3 3d 7f e6 9a 3b ae e8 bf bd 59 12 5c bb
       0.08742156 0.0047271843 -0.09370552 -0.0033580272
000140 db 5a f9 bc 9d 5b 9c bc 69 50 ea bd d5 08 3b bb
       -0.030438831 -0.019086653 -0.11441118 -0.00285392
000150 08 7e 5a be d1 28 63 bd da 89 29 bd 9d 1b b6 bd
       -0.2133714 -0.055458847 -0.04139123 -0.088919856
000160 36 1e 3e 3d f0 fc 31 3e a8 67 af bd fa b4 96 3d
       0.04641553 0.17381644 -0.08564693 0.07358737
000170 e3 a8 5c 3d 34 2e 75 3d 3b 0d b4 bc a9 50 11 3e
       0.053872 0.059858516 -0.021978965 0.14190926
000180 c0 48 24 be f4 9b f1 3d e7 ec ce bd f2 86 16 bd
       -0.16043377 0.11797324 -0.10103779 -0.036749788
000190 13 ae ca 3b 83 bd 95 3d 9d 5f a2 bd a6 50 83 bd
       0.006185302 0.07311537 -0.07928393 -0.06411867
0001a0 f7 74 26 3d 4f 5b 56 bd f1 f1 de 3d 16 59 22 be
       0.04063889 -0.052333172 0.108859904 -0.15854296
0001b0 5d 17 d2 bd 81 5b eb bd fa 2b 3b 3e 9a 5c db bd
       -0.102583624 -0.11492062 0.18278494 -0.10711022
0001c0 ce 4b 86 3d 01 5f b9 bc 30 28 0f 3e f2 09 17 3e
       0.06557427 -0.02262831 0.13980174 0.14749888
0001d0 9a b0 89 bd fb c7 35 bc d2 e6 c3 bd 31 f6 8e bd
       -0.06723137 -0.011095042 -0.0956551 -0.06980551
0001e0 2a 17 83 3b 22 67 ec 3d fc 4e 84 bc 19 ed db bd
       0.004000564 0.115431085 -0.016150944 -0.10738582
0001f0 db 78 c3 bc c8 cd fa 3c ec be d8 bc 07 c7 a3 bd
       -0.02386134 0.030615702 -0.026458226 -0.07996946
000200 a1 62 c7 bd 21 c7 ca bd c1 7e 36 bd cb d5 04 be
       -0.09735609 -0.09901262 -0.044554476 -0.1297218
000210 bb 5f 86 3d 20 7e c6 3d ea ec 5c bd 27 63 a6 bd
       0.06561228 0.09692025 -0.053936876 -0.081243806
000220 d6 6a 68 3e 22 c3 5a 3d c0 f9 59 3e 7a 78 dd bd
       0.22697005 0.05340875 0.21286678 -0.10813995
000230 7a de a6 3d f8 fc bb 3d 6d 2b dd bc 8e 52 17 be
       0.08147903 0.09179109 -0.026998246 -0.14777586
000240 cb 0c 30 3e 8f 6b 70 3d 73 af 43 be 6b 5f 1a bd
       0.1719238 0.058696326 -0.19109897 -0.037688654
000250 de e7 1a bd e5 25 6d 3b 93 25 e7 3d 1a c3 89 3d
       -0.037818782 0.0036185917 0.112864636 0.06726666
000260 0b c1 91 bd 4b 15 6e bd b9 c8 c9 3d ba f4 4a bd
       -0.07116898 -0.058125775 0.09852738 -0.049549796
000270 e6 1b d9 bd bd d1 1e bd 95 13 dc bd 15 bd db bd
       -0.10601024 -0.03877424 -0.107459225 -0.10729424
000280 aa 3b ae bd de 89 bb 3d 9c 36 43 bd 2d 2a 98 bd
       -0.08507474 0.091571555 -0.0476595 -0.074299194
000290 eb 2f f8 bc 07 e5 84 3c 2d d0 6c 3e 62 13 68 be
       -0.030296287 0.01622249 0.23126288 -0.22663644
0002a0 59 a7 d4 3d cf b8 12 be 95 ec 09 3d 20 bc 12 bc
       0.103834815 -0.14328311 0.033672888 -0.008955985
0002b0 3c 35 a9 bd da f7 d6 bd f3 f0 a5 bd 92 5a c1 bd
       -0.08262107 -0.10496493 -0.08102598 -0.09441103
0002c0 4c 0f cb 3d 8c 32 74 3c 41 90 20 3e 6e be 9a bd
       0.09915027 0.014904629 0.15680028 -0.07555853
0002d0 99 36 f1 3d d4 fd a9 bd bf f4 99 bd 89 a4 3b 3e
       0.11777992 -0.08300367 -0.07517385 0.18324484
0002e0 2d 1b 84 bc 92 6a f0 3d 35 6d 87 3d 0f 04 c3 bd
       -0.01612624 0.11739077 0.066126265 -0.095222585
0002f0 9c e5 2c 3e 25 d7 2d bd d5 b4 4a 3c 1b 6e 3e 3e
       0.16884464 -0.042441506 0.012372215 0.1859669
000300 28 2e b3 bd ef 77 f5 bd 05 44 cf bb f4 ae f1 3d
       -0.08749038 -0.11985766 -0.006325247 0.11800948
000310 89 58 c5 bc 46 53 1b bd 20 fa a5 bd 58 cb ea 3d
       -0.024090068 -0.037921213 -0.08104348 0.11464566
000320 af 30 c7 3d f6 02 19 3c c7 d5 7a 3c 71 3e 10 3e
       0.097260825 0.009339085 0.015309758 0.1408632
000330 79 3c 42 bc f1 ab 83 3d 33 7d af bd 73 45 0a 3e
       -0.011855238 0.064292796 -0.08568802 0.13503055
000340 43 e4 36 be 75 0a b2 3d 88 97 10 3c 9e 6f 19 bc
       -0.17860512 0.08693401 0.00882519 -0.0093649905
000350 92 aa 7d 3c 66 ef 05 be 6c 57 c4 3b ca d4 0d 3e
       0.015482562 -0.13079605 0.005991867 0.13850704
000360 fa 3a 2d bb 3c 26 e6 bd 6f 4b 62 3d aa f1 15 bd
       -0.0026432858 -0.112377614 0.05524772 -0.036607422
000370 79 6b 58 bd 5a d7 cb 3d 75 8d 08 bc 69 f4 3b 3e
       -0.05283687 0.099531844 -0.008334507 0.18354954
000380 bc 13 d2 3d 92 74 ed 3d 45 ce ca bc ae 9c 06 bd
       0.1025767 0.115945 -0.02475656 -0.032864265
000390 eb 66 35 3e 64 d9 46 3d 28 9d 81 bd 13 84 fd 3b
       0.17715041 0.048547164 -0.06328803 0.0077366917
0003a0 ee 2b 35 bd 78 07 d8 3d f1 bc 46 3b 2d 51 bd 3d
       -0.044231348 0.105482996 0.003032502 0.09243999
0003b0 d5 69 44 be 7b c7 15 be 85 ec a7 bd e0 a1 ae 3d
       -0.19180997 -0.14626877 -0.081994094 0.08526969
0003c0 6e a2 2b be 75 a5 6a 3d ff ca a1 3d 6b 3e bd 3d
       -0.16761181 0.0572867 0.079000466 0.09240421
0003d0 56 52 dd bc 9c 70 af bc ad f0 02 be b1 62 b3 3d
       -0.0270168 -0.021416001 -0.12787123 0.08759058
0003e0 53 be 48 be 51 7e 2a be e0 34 c9 bb 27 e9 4d be
       -0.19603853 -0.16649748 -0.0061403364 -0.20108472
0003f0 bc a8 35 be 81 57 f2 bd b7 4f 9d 3c d3 51 83 bd
       -0.17740148 -0.11833096 0.01920305 -0.06412091

fc3.bias f4 [10]
000000 b9 dc 24 3d 37 c4 f3 bc 5e 0c db 3c f7 16 3f 3d
       0.04024956 -0.029756648 0.026739296 0.04665276
000010 a1 84 84 3d 4d 41 22 3d 13 31 22 bd ee 97 d5 3c
       0.064706095 0.039613057 -0.039597582 0.026073422
000020 3e a8 9b bb 55 04 8f 3d
       -0.0047502806 0.06983248
