Rijul/Week4/cnn_new.pth (torch, 248199 bytes, 10 tensors)

conv1.weight f4 [6, 3, 5, 5]
0	0x3d3f6d9e	0.0467354
1	0x3d93b54e	0.072123155
2	0xbc0e984b	-0.008703302
3	0x3d215f8c	0.03939776
4	0x3d0a3c82	0.03374911
5	0x3db72357	0.089422874
6	0x3e118ca9	0.14213814
7	0xbd1f167e	-0.03883981
8	0x3d6ea29e	0.058260553
9	0x3b492b12	0.0030695838
10	0x3d9352f1	0.07193554
11	0xbcc06eeb	-0.02349039
12	0x3dfdadbe	0.12386654
13	0x3ddf8217	0.109134845
14	0x3e08b99a	0.13352051
15	0x3dea7635	0.114483275
16	0xbd978a94	-0.073994786
17	0x3cf1e2a0	0.029527009
18	0xbda13b99	-0.078726955
19	0xbdb53a39	-0.08848996
20	0xbdcd7d56	-0.100336716
21	0x3dccac13	0.09993758
22	0xbd1f5717	-0.038901415
23	0x3adfa89e	0.0017063802
24	0x3d12284d	0.035682965
25	0xbd4eeabc	-0.05051683
26	0xbcaf3f5a	-0.021392513
27	0x3d384b02	0.044993408
28	0x3d2edd01	0.042691234
29	0x3d39f411	0.045398775
30	0x3de13995	0.10997311
31	0x3dac54c5	0.08414606
32	0x3d8fe2ac	0.07025656
33	0xbd5a7429	-0.053333435
34	0x3dc53fe4	0.09631327
35	0xbd12f673	-0.035879564
36	0xbd1fa450	-0.03897506
37	0xbdaff4e2	-0.085916296
38	0xbda28bc7	-0.07936817
39	0x3d614564	0.054997817
40	0xbd21cb4e	-0.039500527
41	0xbdadc297	-0.08484381
42	0x3d93b288	0.072117865
43	0x3d5d0dd8	0.05396828
44	0xbda26aeb	-0.07930549
45	0x3dc5af5e	0.09652589
46	0x3d47f043	0.048813116
47	0xbd1c4539	-0.038151953
48	0xbd64b819	-0.05583963
49	0x3dcd03c7	0.10010486
50	0xbd1e2b74	-0.03861566
51	0xbd02a69a	-0.031897165
52	0x3cc06e65	0.02349014
53	0x3d2cd998	0.0421997
54	0xbcf03549	-0.029322283
55	0x3de66276	0.11249249
56	0xbc5bffeb	-0.013427715
57	0x3d46cd7d	0.048535813
58	0x3d91b2d7	0.07114189
59	0x3cec1bb4	0.028821804
60	0xbd52205d	-0.051300395
61	0x3bed5540	0.0072428286
62	0x3dc3579a	0.09538193
63	0xbd8d6fc1	-0.06906081
64	0xbd912a05	-0.07088093
65	0xbd171253	-0.03688271
66	0xbdb58411	-0.0886308
67	0x3dc592aa	0.096471146
68	0x3cd009ff	0.025395392
69	0x3d967188	0.07345873
70	0xbda80e47	-0.08205848
71	0xbd39a98c	-0.045327708
72	0x3b8346cb	0.004006242
73	0xbc73b3f7	-0.01487445
74	0x3d556409	0.052097354
75	0xbd96c64a	-0.073620394
76	0xbd7a1b99	-0.061061475
77	0xbdcfc525	-0.10145024
78	0xbdc320b6	-0.095277235
79	0x3ca06c14	0.019582786
80	0xbcbbbb88	-0.02291657
81	0xbdf4243b	-0.11920973
82	0x3c932325	0.017961094
83	0xbd97aec2	-0.07406379
84	0xbdeab844	-0.11460927
85	0xbd9956b2	-0.07487239
86	0x3d9cf5d7	0.07664078
87	0xbd2c5135	-0.042069633
88	0x3dcd6a85	0.100300826
89	0x3dbbcb4b	0.091696344
90	0xbd935a7c	-0.07194993
91	0x3e03e51a	0.12880364
92	0x3dab5bf5	0.08367149
93	0x3dc9867c	0.09840104
94	0x3dd38b1d	0.10329268
95	0xbc2e1ad3	-0.010626513
96	0x3dc0fa2b	0.09422716
97	0x3d3fcb58	0.046824783
98	0x3dc60d3e	0.096704945
99	0x3d66969a	0.05629597
100	0xbde4fb99	-0.11180801
101	0xbcfe5577	-0.031046612
102	0xbd4e1b56	-0.05031904
103	0x3cc03cde	0.023466524
104	0x3d13ddbe	0.03610014
105	0xbd8c4d63	-0.06850698
106	0xbe0098e6	-0.12558326
107	0xbda88aed	-0.08229623
108	0xbdcfaafc	-0.101400346
109	0xbdae1c06	-0.08501439
110	0xbdc2fbb2	-0.09520663
111	0x3d38506d	0.044998575
112	0x3d44fafd	0.048090924
113	0xbda69eae	-0.081357345
114	0xbb3143fc	-0.0027048578
115	0x3d57c43c	0.052677378
116	0x3dac4d44	0.08413175
117	0x3df193db	0.11795779
118	0xbcba4429	-0.02273758
119	0x3b3e86b8	0.0029071998
120	0x3dd6e47d	0.104927994
121	0xbde3a7ca	-0.111159876
122	0xbd9dff78	-0.077147424
123	0xbd4dd254	-0.050249413
124	0x3c7c3f1a	0.015395904
125	0xbd07e5c5	-0.03317811
126	0xbd63c35d	-0.055606235
127	0xbdd570e7	-0.10421925
128	0xbde3126f	-0.110875
129	0x3dbcd0d4	0.09219518
130	0x3cc179d4	0.023617662
131	0x3d985ef3	0.07439985
132	0xbd1c6b60	-0.03818834
133	0x3af0c2f0	0.0018368643
134	0xbdd39ebf	-0.10333013
135	0x3d911be2	0.07085396
136	0x3d5055d0	0.050863087
137	0x3d36785a	0.04454837
138	0x3dc0b7c9	0.09410054
139	0xbdeca63a	-0.11555143
140	0x3de823f7	0.11334985
141	0x3dfb3890	0.12266648
142	0x3dc959bf	0.09831571
143	0x391d10bc	0.00014978921
144	0x3ceb3da8	0.028715923
145	0xbd65ac79	-0.056072686
146	0xbd97436b	-0.07385906
147	0x3dd2d2c9	0.1029411
148	0x3da8526c	0.08218846
149	0x3dbed526	0.093179986
150	0xbbd339c0	-0.0064460933
151	0x3dd3f93f	0.10350274
152	0xbd58543a	-0.0528147
153	0x3d972308	0.073797286
154	0xbcd2626d	-0.025681699
155	0xbdf8fac3	-0.12157204
156	0x3d958646	0.07301001
157	0xbdcae797	-0.099074535
158	0xbdb516f5	-0.08842269
159	0x3df7f6d7	0.12107628
160	0xbcbfaa54	-0.023396648
161	0xbdb1309c	-0.0865185
162	0xbdca9c68	-0.098931134
163	0x3e13e7e4	0.14443928
164	0x3e0871e3	0.13324694
165	0xbd929a65	-0.07158355
166	0x3d902d9e	0.07039951
167	0xbcf3e963	-0.029774373
168	0x3dde1a34	0.108448416
169	0x3ded33dc	0.11582157
170	0xbd6754ef	-0.056477483
171	0xbdff5df0	-0.12469089
172	0x3c67c8df	0.0141470125
173	0x3ceadc0d	0.028669382
174	0xbd5dfd1d	-0.054196466
175	0xbde39df4	-0.111141115
176	0x3c81454d	0.015780116
177	0xbdbf86e0	-0.09351897
178	0x3bcd5d55	0.0062672296
179	0x3d6399bc	0.055566534
180	0xbd10e993	-0.035379004
181	0x3cb8e7a4	0.022571392
182	0xbde9899a	-0.114031985
183	0x3ddd5796	0.10807721
184	0x3d71abb0	0.059001625
185	0xbdd4ea0e	-0.10396205
186	0x3d4e35f2	0.050344415
187	0xbccf425e	-0.025300201
188	0x3e00e47f	0.12587164
189	0xbbe1fc48	-0.0068965293
190	0xbd7125dd	-0.058874
191	0xbd462898	-0.048378557
192	0xbca89931	-0.02058086
193	0xbb800e12	-0.0039079273
194	0xbd7a96c3	-0.061178934
195	0xbc684d2c	-0.014178555
196	0xbdcb9528	-0.09940559
197	0x3d2aad6c	0.041669294
198	0x3df36b64	0.118857175
199	0xbd17ea07	-0.03708842
200	0xbd342683	-0.04398204
201	0x3cb8c06f	0.022552697
202	0x3cf90a2a	0.030400354
203	0x3d7a8398	0.061160654
204	0x3deaa63d	0.11457489
205	0xbdf39894	-0.11894336
206	0xbca3d5aa	-0.019999344
207	0x3d96b231	0.07358206
208	0xbb48bdf7	-0.0030630806
209	0xbd376ca0	-0.044781327
210	0xbccdc6c1	-0.025119187
211	0xbcb4a63d	-0.022051925
212	0x3ce85685	0.028361568
213	0x3dd13155	0.102144875
214	0x3da24c88	0.079247534
215	0x3c196019	0.00936129
216	0xbd8ce50e	-0.06879626
217	0x3dcc2314	0.09967628
218	0x3d4ddd24	0.050259724
219	0xbcac9fe7	-0.021072341
220	0xbd2b77dc	-0.041862354
221	0xbe002f2d	-0.12517996
222	0x3d773d24	0.060361043
223	0xbdaff48f	-0.08591568
224	0xbd36e8f0	-0.04465574
225	0x3dd60cce	0.10451661
226	0xbdcfb298	-0.10141486
227	0xbdc28563	-0.09498098
228	0x3db417c6	0.08793597
229	0xbd3cea2a	-0.046121754
230	0xbdcc7a02	-0.09984209
231	0xbce341e6	-0.027741384
232	0xbc8c3dda	-0.017119337
233	0xbc8dd179	-0.017311798
234	0x3b6b01f9	0.003585933
235	0xbd8f4acb	-0.069966875
236	0xbe02c1bb	-0.12769215
237	0xbdc4b075	-0.09603969
238	0x3d9e6659	0.07734365
239	0x3bc5d6fa	0.00603759
240	0x3d97c07b	0.074097596
241	0xbca8f3ee	-0.020624127
242	0xbdb7a35e	-0.08966707
243	0xbd3efc88	-0.04662755
244	0x3d381942	0.044945963
245	0x3c19a265	0.009377097
246	0xbda05d7a	-0.07830329
247	0x3d70ba1b	0.058771234
248	0xbcddd7f7	-0.02708052
249	0xbad84835	-0.0016501012
250	0xbc9c89e4	-0.01910872
251	0x3d25027b	0.04028557
252	0xbe16420d	-0.14673634
253	0xbd78bfc0	-0.060729742
254	0xbdd20425	-0.10254697
255	0xbd004d38	-0.03132364

conv1.bias f4 [6]
0	0xbcfc841b	-0.030824712
1	0x3dbd62fa	0.09247394
2	0xbd00b7b0	-0.031425178
3	0xbd9cbdb0	-0.076533675
4	0x3de20b7c	0.11037347
5	0x3d60eb9d	0.0549122

conv2.weight f4 [16, 6, 5, 5]
0	0xbc658069	-0.014007666
1	0x3ba29bd7	0.004962425
2	0x3d9fa9cb	0.07796057
3	0xbd5d97ef	-0.054099973
4	0xbd8a6958	-0.06758374
5	0x3ca5c93d	0.02023756
6	0x3d94b859	0.07261724
7	0x3d8a78af	0.067613
8	0xbcff593e	-0.031170484
9	0xbd544ee4	-0.05183305
10	0x3c59694c	0.013269734
11	0x3d5c5d77	0.053800073
12	0x3d46cc56	0.048534714
13	0xbd4a5070	-0.049393117
14	0x3d20a6b2	0.039221473
15	0xbcb1caf9	-0.02170323
16	0x3c92cb30	0.017919153
17	0xbd60f51c	-0.054921255
18	0xbd390368	-0.045169264
19	0xbd0557d8	-0.032554477
20	0x3daa7a00	0.08324051
21	0x3d627db1	0.05529565
22	0x3d8ab891	0.067734845
23	0x3d27ecd6	0.04099735
24	0xbd2859e2	-0.041101344
25	0x3d0da51a	0.03458128
26	0xbc423ac5	-0.011854832
27	0x3bf01971	0.0073272516
28	0xbd6c6546	-0.05771377
29	0x3d944f34	0.07241669
30	0x3da6947d	0.08133791
31	0xbc4384e4	-0.011933539
32	0xbd427f4f	-0.047484692
33	0x3d2a187f	0.041527268
34	0x3d85ac12	0.065269604
35	0x3a1c2cf7	0.0005957628
36	0x3db7eb20	0.089803934
37	0x3d1130ed	0.03544705
38	0x3c4ca16b	0.012489657
39	0x3cf31a36	0.029675584
40	0x3c86e2d3	0.01646558
41	0x3db91e63	0.09038999
42	0x3a969f33	0.0011491537
43	0x3d121f66	0.035674475
44	0x3d6d6e3c	0.057966456
45	0x3cf6ce90	0.030127794
46	0xbc322bb5	-0.010874678
47	0xbcadb23f	-0.021203158
48	0x3d1701e0	0.036867023
49	0x3ce0126d	0.027352536
50	0x3daffb7f	0.08592891
51	0x3b1c0e69	0.00238123
52	0xbd961f53	-0.07330193
53	0x3cee21e4	0.029068895
54	0xbc9bf314	-0.019036807
55	0x3d941f79	0.072325654
56	0x3da3d413	0.07999434
57	0x3d7c8eb7	0.06165954
58	0x3d88663a	0.06660123
59	0x3c5eeae8	0.013605811
60	0xbd325665	-0.043539423
61	0x3cc5d55e	0.024149593
62	0xbb275c78	-0.0025537293
63	0xbcd4f4e5	-0.025995681
64	0x3bcca78e	0.00624556
65	0x3dda9781	0.10673428
66	0x3d86e63c	0.065868825
67	0xbd5d9b33	-0.054103088
68	0xbd85966f	-0.065228336
69	0xbd5d64b7	-0.054051127
70	0x3b297fd9	0.0025863557
71	0xbd209d02	-0.039212234
72	0x3cc599b9	0.024121152
73	0x3d85f89d	0.0654156
74	0x3d539dcb	0.051664155
75	0x3d7ba97b	0.061440926
76	0x3d8fe21e	0.0702555
77	0xbd68fcbd	-0.056881655
78	0xbcf72ce1	-0.030172767
79	0xbd6f655a	-0.058446266
80	0x3dc0ccc5	0.09414057
81	0xbd942f2b	-0.07235559
82	0xbd2d9e93	-0.042387556
83	0xbc80d2f9	-0.0157256
84	0xbc00b50b	-0.007855664
85	0x3dab6514	0.083688885
86	0xbb44dece	-0.0030040029
87	0x3d34787c	0.044060215
88	0xbd8ebd58	-0.06969708
89	0xbb6dbb92	-0.003627513
90	0xbc953c5d	-0.01821726
91	0x3d86f775	0.065901674
92	0x3ce57fbd	0.028015012
93	0x3b29a323	0.002588459
94	0x3d5be357	0.053683605
95	0x3dc9556f	0.09830748
96	0xbc7dc1f5	-0.0154881375
97	0xbae2c3ad	-0.0017300748
98	0x3c62ab76	0.013834825
99	0x3ce7c40c	0.028291725
100	0xbd50f94c	-0.051018998
101	0x3d93e04f	0.07220518
102	0xbd5a7d57	-0.05334219
103	0xbd9b4a6b	-0.075825535
104	0x3bcdf43c	0.0062852185
105	0x3d5925c8	0.053014547
106	0x3d31536c	0.043292448
107	0xbd8d99ab	-0.069140755
108	0x3bc09080	0.0058766007
109	0xbd590d72	-0.052991338
110	0xbd9320d6	-0.07183997
111	0xbd953d99	-0.072871394
112	0x3d82b7b4	0.06382695
113	0x3d00e103	0.031464588
114	0x3cc82115	0.024429837
115	0xbc8e6417	-0.017381711
116	0xbdade6b7	-0.08491271
117	0xbc3cad58	-0.011515938
118	0xbd60212a	-0.054719128
119	0x3d3f31ff	0.04667854
120	0xbc6875e6	-0.014188265
121	0xbdb699fa	-0.089160874
122	0xbc871638	-0.016490087
123	0x3d65ee83	0.056135666
124	0xbccc3697	-0.024928374
125	0x3d80999a	0.06279297
126	0xbc265358	-0.010151707
127	0xbd094b1d	-0.0335189
128	0x3c5752c1	0.013142289
129	0xbd74bcd8	-0.059750408
130	0x3d47806f	0.04870647
131	0x3ca2db54	0.019879974
132	0x3d56278f	0.05228382
133	0x3d4a7729	0.049430046
134	0x3d8a8e15	0.06765381
135	0xbd39390d	-0.045220423
136	0x3d025f65	0.031829257
137	0x3d933290	0.071873784
138	0xbd3a3631	-0.045461837
139	0xbb0d7b72	-0.0021588472
140	0xbc323a7c	-0.010878202
141	0x3dbeda04	0.09318927
142	0xbc348222	-0.011017354
143	0x3dbc44db	0.09192821
144	0x3d8c193c	0.068407506
145	0x3d31ee50	0.043440163
146	0x3d3c1e8c	0.04592757
147	0xbb010538	-0.0019686949
148	0x3d9e5d7e	0.07732676
149	0x3da6f82b	0.08152803
150	0x3d10b492	0.035328455
151	0x3c80bc3c	0.015714757
152	0x3d075d6d	0.033048082
153	0x3d061730	0.032736957
154	0x3c47ae00	0.012187481
155	0xbd30266d	-0.043005396
156	0x3c8e040d	0.017335916
157	0x3d7d64e0	0.06186378
158	0x3c2d744d	0.01058681
159	0x3d864bae	0.065574035
160	0xbce85855	-0.028362432
161	0xbd9df818	-0.07713336
162	0x3d8075a5	0.06272439
163	0xbd9c415c	-0.07629654
164	0xbd8384ac	-0.064217895
165	0xbbccbe92	-0.0062483037
166	0x3d0f4fc8	0.034988195
167	0xbd327ebf	-0.043577906
168	0x3d822925	0.06355504
169	0xbbb9d495	-0.0056710937
170	0x3d26afcc	0.040694997
171	0xbd0f8212	-0.035036154
172	0x3d81da7b	0.063405
173	0x3ce6c2ef	0.028169123
174	0xbd8f6283	-0.070012115
175	0x3dc20dd1	0.094752915
176	0x3c5ae62a	0.013360539
177	0x3d90944d	0.07059536
178	0xbcb0836b	-0.02154704
179	0x3d456154	0.048188522
180	0x3da6fb67	0.0815342
181	0x3d1ecb92	0.03876836
182	0x3d49ba2d	0.049249817
183	0xbb94b2c0	-0.00453791
184	0x3d74cde7	0.059766676
185	0xbc950e12	-0.018195186
186	0x3d858c3d	0.06520889
187	0x3d831588	0.06400591
188	0xbd9b6c29	-0.07588989
189	0xbbe15387	-0.0068764123
190	0xbc0e9a34	-0.008703757
191	0xbc904a74	-0.017613627
192	0x3d9e1d76	0.07720463
193	0x3c850167	0.01623602
194	0x3cea9129	0.02863367
195	0x3cb7f68f	0.022456435
196	0xbd6d8f5c	-0.057998046
197	0x3cb324a4	0.021868058
198	0xbd2475d1	-0.04015142
199	0xbd544e69	-0.05183259
200	0x3d205d8a	0.039151706
201	0x3be8f3fb	0.007109163
202	0x3d5e26ad	0.054236103
203	0xbd8499ee	-0.06474672
204	0x3d9a47be	0.07533215
205	0x3ba33934	0.0049811844
206	0x3d2bcf46	0.04194572
207	0xbd2a5ecd	-0.041594315
208	0x3da5ef21	0.08102251
209	0xbb6c1d83	-0.0036028333
210	0x3dab74bf	0.08371877
211	0x3d650a1d	0.055917848
212	0x3da63acb	0.081166826
213	0xbd3273f0	-0.043567598
214	0xbd336a05	-0.04380228
215	0x3dc986c1	0.098401554
216	0x3d82e8a4	0.06392029
217	0xbcdcb72d	-0.026942814
218	0x3d961b2f	0.073294036
219	0xbcec67f2	-0.028858159
220	0xbd36d84d	-0.044639874
221	0xbd33cb2e	-0.04389494
222	0x3ccf4005	0.025299082
223	0x3d1eeb3c	0.038798556
224	0x3d5105c4	0.05103089
225	0x3cfcfafb	0.030881396
226	0x3d1d43fb	0.03839491
227	0xbd9053b4	-0.07047215
228	0x3c657aac	0.014006298
229	0xbd74b65b	-0.05974422
230	0x3d8ccef1	0.068754084
231	0x3d6150ff	0.055008885
232	0xbcde648c	-0.027147554
233	0xbb9b4675	-0.0047386237
234	0x3d6cab61	0.057780627
235	0xbc3c99e8	-0.0115113035
236	0xbd022482	-0.031773098
237	0x3d70a5f0	0.058752
238	0xbd9fe01e	-0.07806419
239	0x3d05e6ce	0.032690816
240	0x3c833a99	0.016019152
241	0xbc0e7d64	-0.008696888
242	0x3d16e9c9	0.03684405
243	0x3cbf846e	0.023378577
244	0xbda6f8c3	-0.08152916
245	0x3d354617	0.044256296
246	0xbd3ece6a	-0.04658357
247	0x3d503f4a	0.050841607
248	0x3d350504	0.044194236
249	0xbdbc26bb	-0.09187075
250	0xbd918186	-0.07104783
251	0x3d87e202	0.066349044
252	0xbd0a325b	-0.03373943
253	0xbd27bdc7	-0.04095247
254	0xba44de87	-0.0007509966
255	0x3cf080a8	0.029358223

conv2.bias f4 [16]
0	0xbbeddf10	-0.007259257
1	0xbc258937	-0.010103515
2	0xbc66724b	-0.0140653355
3	0xbd11695a	-0.03550086
4	0xbc6bbe4e	-0.014388634
5	0x3d98e5ca	0.07465704
6	0x3d17fef0	0.03710836
7	0xbd876adc	-0.06612179
8	0x3ca97097	0.02068357
9	0xbd0f8b4c	-0.035044953
10	0x3da14425	0.07874326
11	0x3da7aaa8	0.08186847
12	0x3d91ae28	0.07113296
13	0x3db8ae42	0.09017612
14	0x3c91b675	0.017787198
15	0xbd335a1b	-0.043787103

fc1.weight f4 [120, 400]
0	0xbc5698d8	-0.013097964
1	0xbb719fb8	-0.0036868881
2	0x3d356252	0.04428322
3	0x3cf1d6a8	0.029521301
4	0xbcb4d35e	-0.022073444
5	0xbb0c526f	-0.002141144
6	0x3cefeb42	0.029286984
7	0xbcc98d87	-0.024603618
8	0xbd028ff8	-0.03187558
9	0xbc057d84	-0.008147601
10	0x3c327d30	0.010894105
11	0xbcee12b3	-0.02906165
12	0x3c89ce2c	0.016821943
13	0xbcd4ebca	-0.02599134
14	0xbd0ded7a	-0.034650303
15	0xbca4698f	-0.020069866
16	0xbd48acc7	-0.0489929
17	0x3c881a6e	0.016614165
18	0x3ce48ed5	0.027900139
19	0x3bbaa78f	0.005696244
20	0xbd1a1085	-0.03761341
21	0xbd2d6e43	-0.042341482
22	0xbd145d5c	-0.036221847
23	0x3c7a6c16	0.015284559
24	0x3d21ac65	0.03947105
25	0xbc695061	-0.014240355
26	0xbc8290bd	-0.015938157
27	0xbd0975fd	-0.033559788
28	0x3c13f3ae	0.009030266
29	0x3b75ccce	0.0037506106
30	0xbd3113fe	-0.043231957
31	0xbcf36bf2	-0.029714558
32	0xbcb96e85	-0.022635708
33	0x3c347f4d	0.011016679
34	0x3cf41484	0.029794939
35	0xbcb586eb	-0.02215906
36	0xba9bdb8f	-0.0011890995
37	0x3d198efa	0.03748987
38	0xbb8fd290	-0.0043891147
39	0x3ca44e0c	0.020056747
40	0x3cd07de6	0.025450658
41	0xbd307c6c	-0.043087408
42	0xbc02d3b7	-0.007985047
43	0x3d0c404f	0.034241017
44	0x3d427960	0.047479033
45	0xbd495eb2	-0.049162574
46	0xbcfefcaa	-0.031126339
47	0x3ca62513	0.02028135
48	0xbc2bc703	-0.01048446
49	0xbcc9b084	-0.024620302
50	0xbc3a8afb	-0.011385675
51	0x3b8828b6	0.0041552437
52	0xbc2bc1f9	-0.010483258
53	0x3c7567f1	0.014978395
54	0x3c50ef61	0.012752385
55	0xbd411556	-0.04713949
56	0x3d334c0d	0.0437737
57	0xbd17d675	-0.037069757
58	0x3d44b417	0.04802331
59	0xbce0bf09	-0.027434843
60	0xbc5b5895	-0.013387819
61	0x3d487865	0.048942942
62	0x3d391941	0.0451901
63	0x3d0ccab6	0.034373008
64	0x3d2874e7	0.04112711
65	0xbca9fa30	-0.020749182
66	0xbc5dc7cc	-0.013536405
67	0xbd4b2ce0	-0.049603343
68	0xbc56ecd6	-0.0131179895
69	0xbce29546	-0.02765907
70	0xbcfac055	-0.03060929
71	0x3c54fbb6	0.012999466
72	0x3c0d1915	0.008611937
73	0xbcccf68f	-0.025019912
74	0x3cde904d	0.027168417
75	0xbccd2147	-0.025040282
76	0xbd10f712	-0.035391875
77	0xbacf7ace	-0.0015829445
78	0xbce0193d	-0.027355785
79	0xbc135b02	-0.008993866
80	0xbd3d947e	-0.04628419
81	0x3c0f340f	0.008740439
82	0xbd217a47	-0.039423253
83	0xbb21fbb5	-0.002471668
84	0xbce8e236	-0.028428178
85	0xbc06223f	-0.008186876
86	0xbb76d830	-0.003766548
87	0x3cf068cf	0.029346852
88	0x3ce38efe	0.027778145
89	0xbc9a36e8	-0.01882501
90	0xbcfcc3d1	-0.030855091
91	0xbca110b0	-0.019661278
92	0x3c3c7050	0.011501387
93	0x3d3aa485	0.045567054
94	0xbd128c2b	-0.035778206
95	0x3d3c485d	0.04596745
96	0xbbbedc50	-0.005824603
97	0x3cb84ab2	0.022496555
98	0xbd11b151	-0.035569493
99	0xbd33e7c8	-0.043922216
100	0xbd343539	-0.04399607
101	0x3ccdebab	0.02513679
102	0x3d10aa23	0.035318505
103	0x3c72cdc6	0.014819568
104	0x3ca01ee0	0.019545972
105	0xbd20abfd	-0.03922652
106	0xbc0f87e3	-0.008760425
107	0xbcaef11d	-0.021355206
108	0xbd1073cc	-0.035266683
109	0xb88c2ea0	-6.684405e-05
110	0xbcb3cbf4	-0.021947838
111	0x3d07fbf5	0.03319927
112	0xbcb2a14d	-0.02180543
113	0xbd285c1b	-0.041103464
114	0x3cd933ce	0.02651396
115	0xbb5bc86c	-0.0033536209
116	0xbd35d62e	-0.04439371
117	0x3cd17e44	0.025572903
118	0x3d3731f6	0.04472538
119	0xbcef4fb0	-0.029212803
120	0xbd011bdd	-0.031520713
121	0x3cbcbd4c	0.023039483
122	0x3bfdb602	0.0077426443
123	0x3ae4f57b	0.0017468178
124	0xbcf66ddf	-0.030081687
125	0xbd098f33	-0.03358383
126	0xbce228d4	-0.027607359
127	0xbcb548e5	-0.022129485
128	0x3c96cb1f	0.018407403
129	0x3d26f3da	0.0407599
130	0xbc4ddf2b	-0.012565414
131	0x3ca76500	0.020433903
132	0xbca0979a	-0.01960354
133	0x3cec1364	0.02881784
134	0x3d37bc1e	0.044857137
135	0xbc4beb63	-0.012446257
136	0x3c00d5da	0.007863486
137	0xbd19a23c	-0.037508234
138	0xbcfe18f8	-0.031017765
139	0xbc9741e5	-0.018464038
140	0x3d383110	0.044968665
141	0x3d20126d	0.039080072
142	0x3c1983e5	0.009369825
143	0x3ae7a4c3	0.0017673004
144	0xbc5921bd	-0.013252673
145	0xbb35ed18	-0.0027759727
146	0x3d12e777	0.035865273
147	0xbc9bf8e0	-0.019039571
148	0x3c4da0de	0.012550561
149	0x3cd572ba	0.026055682
150	0x3d2099c5	0.039209146
151	0x3d49df39	0.049285147
152	0xbb84465b	-0.0040367073
153	0xbcc97a8f	-0.024594573
154	0xbcfe1642	-0.031016473
155	0xbc0e4d34	-0.008685399
156	0xbc6c0140	-0.014404595
157	0x3b8e75b5	0.004347528
158	0x3cb2c126	0.021820616
159	0x3cbcf566	0.023066234
160	0xbc9adf4d	-0.018905306
161	0x3d1535d5	0.03642829
162	0x3c8aaa32	0.016926859
163	0xbd48fa1d	-0.04906665
164	0xbbfb33c2	-0.007666082
165	0x3c6042b3	0.013687777
166	0xbd021098	-0.031754106
167	0xbd237455	-0.039905865
168	0x3c40ee1e	0.011775522
169	0x3d45695e	0.04819619
170	0xbb96e73f	-0.0046052034
171	0xbd0fcb96	-0.035106264
172	0x3ce6a974	0.028156973
173	0xbcbd4e5a	-0.02310865
174	0xbba8ddc5	-0.00515339
175	0xbc8df714	-0.01732973
176	0x3be101c4	0.0068666656
177	0xbc969d4d	-0.018385554
178	0xbd082807	-0.033241298
179	0xbd27ce7f	-0.040968414
180	0xbc3841e7	-0.011246181
181	0xbbd584e3	-0.0065160855
182	0x3c4e3a0a	0.01258708
183	0x3c79977e	0.015233872
184	0x3d03d8f4	0.032189324
185	0x3ac58f0c	0.0015072539
186	0x3cbf6c6d	0.023367131
187	0x3c57fa1e	0.013182191
188	0xbcd8d212	-0.026467357
189	0x3d1bd72a	0.038046993
190	0xbc070d43	-0.008242908
191	0xbd065c76	-0.03280302
192	0xbcb936ff	-0.022609232
193	0xbcbc2b11	-0.022969754
194	0xbbf27b49	-0.0073999506
195	0xbd3f6330	-0.046725452
196	0x3cec16c5	0.028819451
197	0xbd1bb8e5	-0.038018126
198	0xbc495692	-0.012288706
199	0x3c227530	0.009915635
200	0xbc0f5044	-0.008747164
201	0xbcac212b	-0.02101191
202	0x3d02c373	0.031924676
203	0x3ce97cc3	0.028501874
204	0xbbc57c9f	-0.006026819
205	0x3c68a538	0.0141995475
206	0xbbffe289	-0.0078089875
207	0xbd0b73c8	-0.034045964
208	0x3cba2d7f	0.022726772
209	0xbcf13997	-0.029446406
210	0xbd1f7b06	-0.038935684
211	0xbc8dcd5f	-0.017309843
212	0xbc245e92	-0.010032313
213	0x3d499e8b	0.049223464
214	0x3cb6139e	0.022226151
215	0x3cd17cef	0.025572268
216	0xbd0b6ddc	-0.034040317
217	0xbc036e33	-0.008021879
218	0x3ca44d31	0.020056339
219	0x3c8ccad1	0.017186554
220	0xbd058f67	-0.032607462
221	0x3c9a857f	0.018862484
222	0x3c40258e	0.011727704
223	0x3d0520bb	0.032501917
224	0x3cfaa9a8	0.030598477
225	0xbd2010d5	-0.039078552
226	0x3ca1c694	0.01974801
227	0x3c49c4b8	0.012314968
228	0xbd19f7f8	-0.037589997
229	0xbc96553b	-0.018351188
230	0x3cf699e2	0.030102674
231	0x3d2abae4	0.04168214
232	0x3a833f4f	0.0010013374
233	0x3d042ee3	0.032271277
234	0xbc3c6d1b	-0.011500622
235	0x3c79090e	0.015199913
236	0x3d11308e	0.035446696
237	0x3ba168df	0.0049258317
238	0xbd3df4c4	-0.046376005
239	0xbcd09cd5	-0.025465408
240	0xbc3735bb	-0.011182244
241	0x3b2fa9cc	0.0026804088
242	0xbbfc9c8b	-0.007709091
243	0x3d309c08	0.043117553
244	0x3ccddbc8	0.025129214
245	0x3d2124fb	0.039341908
246	0x3c56f22c	0.013119262
247	0xbc8131bb	-0.015770784
248	0xbd19b335	-0.03752442
249	0x3d3eb8dd	0.046563018
250	0x3cc30a42	0.023808602
251	0xbd1bd516	-0.03804501
252	0x3cef633d	0.029222125
253	0x3cac2a04	0.021016128
254	0x3d202b03	0.03910352
255	0xbcc835ed	-0.024439776

fc1.bias f4 [120]
0	0x3cc68ac1	0.024236085
1	0x3d62fe4d	0.0554183
2	0xbd0e9cef	-0.034817632
3	0xbb6cbce0	-0.003612332
4	0xbc81f90c	-0.015865825
5	0x3d024341	0.03180242
6	0xbc2fdcbd	-0.01073378
7	0x3b642103	0.0034809716
8	0xbcfc9004	-0.03083039
9	0x3cd2d8e2	0.025738183
10	0xbccd6285	-0.025071392
11	0xbd497acc	-0.049189374
12	0xbb8e493f	-0.0043422277
13	0x3d24a6ff	0.040198322
14	0xbd2215e7	-0.03957167
15	0x3b857abf	0.0040734704
16	0xbd093fc6	-0.033508085
17	0xbc8bca89	-0.01706435
18	0xbd393b9a	-0.045222856
19	0xbba350b2	-0.004983985
20	0xbcf3dd6e	-0.029768672
21	0xbb04672c	-0.0020203097
22	0xbd49528a	-0.04915098
23	0x3d34abd9	0.0441092
24	0xbaf875a0	-0.0018955953
25	0x3c297d11	0.01034476
26	0x3c072884	0.008249406
27	0xbcf16f3d	-0.029471988
28	0xbd06de41	-0.0329268
29	0x3cddbe0e	0.027068164
30	0xbb4a2edd	-0.0030850687
31	0x3d0ef9c8	0.03490618
32	0x3ca41b90	0.020032674
33	0xbca3cf11	-0.019996198
34	0x3d368be2	0.044566996
35	0xbd1419cf	-0.036157425
36	0x3d220463	0.039554965
37	0xbcaba1dd	-0.020951206
38	0xbd17b060	-0.03703344
39	0x3ce26f41	0.02764094
40	0xbc35612a	-0.011070529
41	0x3ce3d5ec	0.027811967
42	0x3c22c4f5	0.0099346535
43	0x3c5a707d	0.013332483
44	0x3ccace57	0.024756594
45	0xbd28a639	-0.041174147
46	0xbc20b1bb	-0.009807999
47	0xbca34990	-0.019932538
48	0x3d24afb7	0.040206637
49	0x3cb206af	0.021731703
50	0x3ce2513d	0.027626628
51	0x3bd648a2	0.00653942
52	0xbadf3314	-0.0017028772
53	0xbc98ae79	-0.018637883
54	0x3b37b6bb	0.00280325
55	0xbd0c0b9e	-0.034190767
56	0xbc0f5b7c	-0.008749839
57	0x3d4d7998	0.05016479
58	0x3d5e4372	0.05426354
59	0xbd40eed6	-0.04710277
60	0x3d220080	0.039551258
61	0x3bcea0b1	0.006305777
62	0x3d3bc16b	0.045838755
63	0xbcca672d	-0.024707401
64	0x3c944ffd	0.018104548
65	0x3b019e88	0.001977833
66	0xbd0b7128	-0.03404346
67	0x3cbc3bf8	0.022977814
68	0xbca18eb6	-0.01972137
69	0x3c739327	0.014866627
70	0xbbf64318	-0.0075153224
71	0x3d5901fe	0.052980416
72	0x3c9d43c3	0.01919735
73	0xbd1aa8c0	-0.03775859
74	0xbd032093	-0.032013487
75	0xbcd7dac6	-0.026349436
76	0x3cfc5fe5	0.030807445
77	0xbc900bb4	-0.017583705
78	0xbc95e4a8	-0.018297508
79	0x3d0de1ac	0.034639046
80	0xbd2b7944	-0.041863695
81	0xbb25bd28	-0.0025289748
82	0x3aef70cf	0.0018267873
83	0x3d4dc228	0.05023399
84	0xbc8ce851	-0.01720062
85	0xbc14674b	-0.00905783
86	0x3d3bce72	0.04585118
87	0xbd2fe2b5	-0.042940814
88	0x3d51d736	0.05123063
89	0xbbbee58d	-0.0058257044
90	0x3c8395d8	0.016062662
91	0x3d128d1f	0.035779115
92	0x3c87cd49	0.01657738
93	0x3bc0e4f7	0.0058866697
94	0xbcbf7c37	-0.02337466
95	0xbb6c0d5e	-0.003601871
96	0x3d001d75	0.031278092
97	0xbcf0309b	-0.029320052
98	0xbcc5fa55	-0.02416722
99	0xbd0358a4	-0.032066956
100	0x3cc6a375	0.024247864
101	0x3cbf77fd	0.023372645
102	0x3c9e11f6	0.019295674
103	0xbcedef53	-0.029044783
104	0x3b5c631e	0.0033628414
105	0x3c7a57a0	0.0152796805
106	0xbc14174f	-0.00903876
107	0xbd027c75	-0.031856973
108	0x3d0e4c08	0.034740478
109	0xbbd9b7dd	-0.0066442327
110	0x3c3c0557	0.0114758825
111	0xbadfb5e3	-0.0017067756
112	0x3ccace36	0.024756532
113	0xbb8c26e2	-0.004277096
114	0x3ccee483	0.025255447
115	0xbd097965	-0.033563036
116	0xbcdf1448	-0.02723135
117	0xbcabd019	-0.020973252
118	0xbcd7c898	-0.026340768
119	0xbd141537	-0.036153045

fc2.weight f4 [84, 120]
0	0x3d139ff7	0.036041226
1	0x3c639f30	0.013892934
2	0xbc1d1648	-0.009587832
3	0xbda5738e	-0.08078681
4	0x3b125c00	0.0022332668
5	0xbd7f0a79	-0.062265847
6	0x3d1a6f02	0.03770352
7	0xbcd4a4c8	-0.02595748
8	0xbc6634a8	-0.01405064
9	0x3d89952a	0.06717904
10	0xbdb6bf87	-0.0892325
11	0xbcdc821c	-0.02691751
12	0xbd3be54f	-0.045872983
13	0x3d8f5e1e	0.07000373
14	0x3cced694	0.025248803
15	0x3d910e91	0.070828564
16	0xbd84e154	-0.064882904
17	0xbc39f350	-0.011349514
18	0xbd9369e5	-0.07197932
19	0xbc9c9a48	-0.019116536
20	0xbcbb24ec	-0.022844754
21	0x3d721f1a	0.059111692
22	0xbd78cc7c	-0.060741886
23	0x3c12b8e2	0.008955212
24	0xbd974fde	-0.0738828
25	0x3cc3e7fa	0.023914326
26	0xbd51d719	-0.051230524
27	0x39441023	0.00018698028
28	0xbc968100	-0.018372059
29	0x3cb6a7f6	0.022296887
30	0xbd58daef	-0.052943166
31	0xbd5bab3d	-0.053630102
32	0x3db38120	0.08764863
33	0xbd62f22d	-0.055406738
34	0xbd9c0aad	-0.07619224
35	0xbd96d683	-0.073651336
36	0xbd742d74	-0.05961366
37	0xbc3aa5d0	-0.011392072
38	0xbc01b24a	-0.007916043
39	0x3d564217	0.052309122
40	0x3d112fb0	0.03544587
41	0xbcb97373	-0.022638058
42	0x3c56bcf0	0.01310657
43	0xbbae3ae3	-0.0053170784
44	0x3bbe445f	0.0058064903
45	0xbd8dce1f	-0.0692408
46	0xbd2c969c	-0.04213582
47	0xbc176750	-0.00924094
48	0xbd5830a0	-0.052780747
49	0xbd96ed10	-0.07369435
50	0xbbbcd3b0	-0.00576254
51	0xbceada86	-0.028668653
52	0xbd7d0f24	-0.061782017
53	0x3d9d9f5a	0.076964095
54	0x3da7fa5f	0.08202051
55	0x3c5050e0	0.012714595
56	0x3cae5148	0.021278992
57	0x3d8d7790	0.0690757
58	0x3d066dae	0.032819442
59	0xbc4cc53d	-0.012498197
60	0x3d748454	0.05969651
61	0xbcdda700	-0.02705717
62	0x3d7481c4	0.059694067
63	0x3dac0224	0.08398846
64	0xbdb291b9	-0.08719201
65	0xbd0df16e	-0.034654073
66	0x3c6c1490	0.014409199
67	0xbaf560ea	-0.0018720899
68	0x3c6a471c	0.01429918
69	0x3d36a605	0.044591922
70	0x3d0cc569	0.034367952
71	0xbd3cfd35	-0.046139915
72	0xbc915a1b	-0.017743161
73	0xbcacd819	-0.021099137
74	0xbd482244	-0.048860803
75	0xbda05fab	-0.07830747
76	0x3d8eec0c	0.06978616
77	0x3d0e1afc	0.034693703
78	0x3d92211a	0.0713522
79	0xbda9e04d	-0.08294735
80	0x3d6ba39c	0.057529077
81	0xbdb69106	-0.0891438
82	0xbcc42104	-0.023941524
83	0x3c420595	0.011842151
84	0xbd32347d	-0.043507088
85	0xbdb0bcc8	-0.08629757
86	0x3ccf41b1	0.025299879
87	0xbd9668d1	-0.07344211
88	0xbd87d9c0	-0.066333294
89	0x3c30a378	0.0107811615
90	0xbd0ac608	-0.033880264
91	0x3d91195f	0.07084917
92	0xbd91b812	-0.07115187
93	0xba7adccd	-0.0009569645
94	0x3d20a4f8	0.039219826
95	0x3ca7dbe6	0.020490598
96	0xbc8f3430	-0.01748094
97	0xbd87149e	-0.06595729
98	0x3daee263	0.085392736
99	0x3d9c5949	0.07634217
100	0x3ca4a412	0.020097766
101	0xbdb01129	-0.08597023
102	0x3d84ab47	0.06477981
103	0xbcda0e56	-0.026618164
104	0xbcd95028	-0.02652748
105	0xbd6eb09a	-0.05827389
106	0xbd85a432	-0.065254584
107	0xbdb5e1b0	-0.08880937
108	0x3cd52f98	0.026023671
109	0xbc44c148	-0.0120089725
110	0x3d4e30d4	0.050339535
111	0x3d8ae4e7	0.06781941
112	0x3d248d65	0.040173907
113	0x3c7a4f89	0.015277752
114	0xbd145626	-0.03621497
115	0x3d8d248c	0.068917364
116	0x3d0c6f68	0.034285933
117	0xbda9c616	-0.08289735
118	0x3c894957	0.016758604
119	0xbd92ce9e	-0.07168315
120	0x3d91d9d1	0.07121623
121	0xbb4a1577	-0.0030835548
122	0xbc649d53	-0.013953525
123	0x3ca32d6e	0.019919124
124	0x3db96129	0.09051735
125	0xbd17cebd	-0.037062395
126	0xbd669d59	-0.056302402
127	0x3d8f9ee6	0.07012729
128	0xbcee8076	-0.02911399
129	0x3c59416f	0.0132602295
130	0x3d26d00e	0.04072576
131	0xbc350fde	-0.011051146
132	0xbc246389	-0.010033497
133	0xbd139f15	-0.036040384
134	0xbc95d08f	-0.018287925
135	0x3d2b14b7	0.041767802
136	0x3d671379	0.056415055
137	0x3a62aa53	0.0008646596
138	0xbc6b4167	-0.014358855
139	0xbc8b7791	-0.017024787
140	0xbda1ddbf	-0.07903623
141	0xbd15f81e	-0.036613576
142	0xbd117c58	-0.035518974
143	0xbd0b55de	-0.034017436
144	0x3dad0b7b	0.08449455
145	0x3d1ffe3d	0.03906082
146	0x3cd92350	0.026506096
147	0xbc9dddf6	-0.019270878
148	0x3d2bb7e8	0.041923434
149	0xbc641cf5	-0.0139229195
150	0x3d69f616	0.05711945
151	0xbc9ed660	-0.019389331
152	0x3d9c5129	0.076326676
153	0x396be01e	0.00022494837
154	0x3db9193f	0.090380184
155	0xbcfd9eed	-0.03095957
156	0xbd76a966	-0.060220145
157	0xbda2789f	-0.07933163
158	0x3a9f8e87	0.0012173214
159	0x3b83a5e5	0.004017579
160	0x3d854996	0.06508176
161	0xbd1cb75e	-0.03826081
162	0xbd861fd3	-0.06549039
163	0xbbaa5269	-0.0051978123
164	0x3db90919	0.09034938
165	0x3daccafd	0.084371544
166	0xbd406afe	-0.046977036
167	0xbd896338	-0.067083776
168	0x3d4e0e81	0.0503068
169	0x3d2291aa	0.039689697
170	0x3c012653	0.007882672
171	0x3d8ea61b	0.06965276
172	0xbdab1f2f	-0.08355557
173	0xbd869fef	-0.06573474
174	0x3c9f213e	0.01942503
175	0x3ca2f7e7	0.0198936
176	0xbdacae32	-0.084316626
177	0x3b911d27	0.004428524
178	0x3d819524	0.063272744
179	0xbaf946d9	-0.0019018307
180	0xbc4c06d5	-0.012452801
181	0x3c759a59	0.014990413
182	0x3da77a23	0.081775926
183	0x3caf7541	0.021418216
184	0x3d8e4e6e	0.06948553
185	0xbc246be9	-0.010035493
186	0xbd6e01c4	-0.058107153
187	0x3c589479	0.013218992
188	0xbccbc077	-0.024872048
189	0xbd98d0f0	-0.07461727
190	0xbcb2cb30	-0.021825403
191	0x3d89560d	0.06705866
192	0xbc922091	-0.017837794
193	0x3d85fb57	0.0654208
194	0x3da84360	0.08215976
195	0x3c47fc5d	0.012206164
196	0xbc0e4849	-0.008684226
197	0xbd801e37	-0.06255763
198	0xbd8f9471	-0.07010735
199	0xbc24b90a	-0.010053882
200	0x3d83c787	0.06434541
201	0x3d4722de	0.048617236
202	0xbb077aa1	-0.0020672458
203	0xbcb7c8b6	-0.022434574
204	0x3d801b32	0.06255187
205	0xbcc3f9c2	-0.023922805
206	0x3d91241f	0.07086968
207	0xbd9a7dc6	-0.07543521
208	0xbd13b470	-0.03606075
209	0x3d593a0e	0.05303388
210	0xbd5a4b53	-0.05329449
211	0x3da9b743	0.082869075
212	0x3d012d92	0.0315376
213	0xbca2d351	-0.019876154
214	0x3ca44532	0.020052526
215	0x3c8ecdcb	0.017432114
216	0x3d7cee87	0.061750915
217	0xbd8a2226	-0.067447945
218	0xbcd04520	-0.025423586
219	0xbd183874	-0.037163213
220	0xbb941fff	-0.004520416
221	0xbd4d472a	-0.050116695
222	0x3b91111c	0.0044270884
223	0x3d6f2aac	0.058390304
224	0xbdaf015a	-0.0854518
225	0x3d72a67d	0.059240807
226	0xbd170b1d	-0.036875833
227	0xbb8854a1	-0.004160479
228	0xbd7b3924	-0.06133379
229	0x3d5eac7b	0.05436371
230	0xbce1a3e5	-0.027543971
231	0x3d70a99f	0.058755513
232	0xbd6e3f50	-0.05816585
233	0xbd4499f2	-0.047998376
234	0xbdba88c8	-0.0910812
235	0x3cbcbee8	0.02304025
236	0xbbb551be	-0.005533426
237	0xbb6f7fe6	-0.003654474
238	0x3d665a5b	0.056238513
239	0xbd41741c	-0.04722987
240	0xbbbcbfe4	-0.00576018
241	0x3d5eb807	0.05437472
242	0xbd86fa3a	-0.06590696
243	0x3d15157e	0.03639745
244	0xbc693cdc	-0.014235701
245	0x3d7831c1	0.060594324
246	0xbdcb3998	-0.099230945
247	0xbd91f48b	-0.07126721
248	0xbd1ca4f5	-0.038243253
249	0xbd5b8937	-0.053597655
250	0xbda73b62	-0.08165623
251	0xbd04df41	-0.032439474
252	0xbd4a4f6c	-0.04939215
253	0xbdb032e4	-0.086034566
254	0xbd1bc0d8	-0.038025707
255	0x3af6d598	0.0018831966

fc2.bias f4 [84]
0	0xbd9f5286	-0.07779412
1	0x3d893d3f	0.06701135
2	0x3d728994	0.059213236
3	0xbcfc3fb6	-0.030792098
4	0x3cbb8165	0.022888849
5	0xbcd4b828	-0.025966719
6	0x3bdf21c7	0.0068094465
7	0xbd60eb8f	-0.054912146
8	0xbbc43443	-0.0059876754
9	0xbd67009f	-0.056397077
10	0x3d35b4ed	0.044361997
11	0x3d39b168	0.045335203
12	0x3d5414cd	0.05177765
13	0x3d8fddde	0.0702474
14	0x3d1fd2be	0.03901934
15	0x3d64a303	0.055819523
16	0x3d16dd54	0.03683217
17	0x3d1d5b68	0.03841725
18	0x3d8ed31d	0.069738604
19	0x3da0281b	0.078201495
20	0x3db496aa	0.088177994
21	0xbda496d6	-0.08036582
22	0xbd96a70f	-0.07356083
23	0x3da9ff24	0.08300617
24	0x3da74500	0.081674576
25	0xbb8078af	-0.0039206366
26	0xbd0faab9	-0.035074923
27	0x3c9ea5b5	0.019366125
28	0xbcec4735	-0.028842548
29	0xbda7017a	-0.081545785
30	0x3ca8e5d5	0.020617405
31	0x3dced5f7	0.10099404
32	0x3d83da1d	0.06438086
33	0x3dbf5957	0.09343212
34	0xbd944818	-0.07240313
35	0xbc92bd81	-0.017912628
36	0x3c650161	0.01397738
37	0xbdb08ba1	-0.08620382
38	0xbc7fe5cd	-0.015618754
39	0x3da28738	0.07935947
40	0xbd8e107b	-0.06936737
41	0x3dacd611	0.084392674
42	0x3cc6aff4	0.024253823
43	0xbd4d0a8d	-0.05005889
44	0x3dad146e	0.08451162
45	0x3d8aa367	0.06769448
46	0x3db92fb6	0.09042303
47	0xbc0325d1	-0.008004622
48	0x3c600941	0.013674081
49	0xbd5a4650	-0.05328971
50	0xbd90e30f	-0.07074558
51	0x3d89ce2a	0.06728776
52	0xbd711cd1	-0.058865372
53	0xbdbaed08	-0.091272414
54	0xbcd2fb96	-0.025754731
55	0xbc4c26d6	-0.012460431
56	0xbdc89f4b	-0.09796008
57	0x3d9dae2f	0.076992385
58	0x3dad8f7c	0.08474633
59	0x3d759a60	0.059961677
60	0x3c201837	0.009771398
61	0xbd0d288c	-0.034462497
62	0xbc29dada	-0.01036712
63	0xba6757be	-0.0008825025
64	0xbc106f57	-0.008815608
65	0x3d3da64f	0.046301182
66	0x3db99dfe	0.09063338
67	0x3de6a126	0.112612054
68	0xbd87e522	-0.066355005
69	0x3cf49093	0.029854095
70	0xbda97854	-0.08274904
71	0x3cc62ac0	0.024190307
72	0x3ce995a5	0.028513739
73	0xbd360fca	-0.04444865
74	0x3d9fd30c	0.07803926
75	0x3ce55cf1	0.02799842
76	0x3cdc3423	0.02688033
77	0xbd262ad0	-0.040568173
78	0x3d0e3334	0.0347168
79	0xbd2e5264	-0.042559043
80	0xbc697b79	-0.01425063
81	0x3d330d1c	0.043713674
82	0xbc9c5170	-0.019081801
83	0xbd889611	-0.06669248

fc3.weight f4 [2, 84]
0	0xbcb2f6fb	-0.021846285
1	0xbd52cb9a	-0.0514637
2	0xbe417cd0	-0.18895268
3	0xbcb64f44	-0.022254594
4	0xbd47914d	-0.048722554
5	0xbd4d908a	-0.05018667
6	0xbce9164b	-0.028453013
7	0x3c626734	0.013818551
8	0x3dd42b4d	0.103598215
9	0xbdafbe39	-0.08581204
10	0xbdfc1ba1	-0.12309957
11	0xbde30ae1	-0.11086059
12	0xbcb14234	-0.021638013
13	0x3d479df3	0.048734616
14	0x3d93c92f	0.07216107
15	0x3e038c6f	0.1284654
16	0xbdabcd12	-0.083887234
17	0xbd59ea80	-0.053202152
18	0x3d9b02b5	0.07568876
19	0xbe136c72	-0.14396837
20	0xbd556420	-0.05209744
21	0xbdc48f36	-0.09597628
22	0xbd2e8633	-0.04260845
23	0xbda6ce1c	-0.08144781
24	0xbdc33006	-0.09530644
25	0xbce480ba	-0.027893413
26	0xbd1ccf67	-0.03828373
27	0x3d51b1c7	0.051194932
28	0x3d9011e6	0.07034664
29	0x3da056f6	0.078290865
30	0x3dcf7f42	0.101316944
31	0xbcf8d7de	-0.030376371
32	0xbcd54c75	-0.026037434
33	0x3ce914f7	0.02845238
34	0x3bc418b0	0.0059843883
35	0x3d2ef1a5	0.04271092
36	0x3e04ad1d	0.12956662
37	0x3dcbf010	0.09957898
38	0xbcb9fbd1	-0.022703083
39	0xbb01d9b2	-0.0019813594
40	0xbdc73485	-0.09726814
41	0x3e29771d	0.16549344
42	0xbd7efb05	-0.06225111
43	0x3d9dc463	0.077034734
44	0x3dac6855	0.08418337
45	0xbc9c2f43	-0.019065505
46	0x3e1279d0	0.1430428
47	0x3d4dedf4	0.050275758
48	0x3e0574e8	0.13032877
49	0x3d95add8	0.07308549
50	0xbcf6bb87	-0.030118717
51	0x3d5d131b	0.0539733
52	0x3d53166e	0.051535062
53	0xbd9b4605	-0.075817145
54	0x3c595d1c	0.013266828
55	0x3bae0099	0.00531013
56	0x3da63dcd	0.08117256
57	0x3de1ece9	0.11031515
58	0xbe0ecd95	-0.13945611
59	0xbd91fdf8	-0.07128519
60	0xbd05dbb1	-0.032680217
61	0x3e27a318	0.16370809
62	0xba64a2ca	-0.0008721767
63	0xbb5eed5a	-0.0034015984
64	0x3dacb8fe	0.08433722
65	0xbe214ce3	-0.15751986
66	0x3dc4867c	0.09595963
67	0x3d01d23c	0.031694636
68	0x3dbce714	0.09223762
69	0xbe25f250	-0.16205716
70	0xbd3157ba	-0.043296553
71	0x3bab2706	0.005223158
72	0x3da8e73f	0.08247232
73	0x3dddec4c	0.10836086
74	0x3d19c0e4	0.03753747
75	0x3d222234	0.0395834
76	0x3d8c95d6	0.068645164
77	0xbd9dbc63	-0.077019475
78	0xbd1bf3d4	-0.03807433
79	0xbc09bd78	-0.008406989
80	0xbdbb4e95	-0.09145848
81	0xbba7c3d6	-0.005119781
82	0x3c9ae5a3	0.018908327
83	0x3d5a10b4	0.053238586
84	0x3d89f25a	0.06735678
85	0xbd926724	-0.07148579
86	0x3dfef132	0.12448348
87	0x3db9b371	0.09067429
88	0xbb67acbe	-0.0035350765
89	0xbd29a87a	-0.041420437
90	0xbd3512e3	-0.044207465
91	0x3cc16f16	0.02361254
92	0xbdb5b365	-0.088721074
93	0xbdc7e125	-0.0975974
94	0xbce7d562	-0.028299991
95	0x3e26a9d5	0.16275723
96	0xbcf7e252	-0.030259285
97	0xbccb0545	-0.024782786
98	0xbd3c2dd0	-0.045942128
99	0xbe0d09ac	-0.13773221
100	0x3d180692	0.03711564
101	0xbc82031a	-0.01587062
102	0xbe377bf0	-0.17918372
103	0x3d355b48	0.044276506
104	0x3d888749	0.066664286
105	0x3c0bdd91	0.008536712
106	0xbd191f0f	-0.037383135
107	0xbc7b70da	-0.01534673
108	0x3dfb4ed6	0.12270896
109	0x3d90e544	0.07074979
110	0xbd4bc92f	-0.04975241
111	0x3d9e616e	0.07733427
112	0xbdd05ed3	-0.10174336
113	0x3c8a66b2	0.016894672
114	0xbd3c60a0	-0.045990586
115	0x3df1d295	0.118077435
116	0x3d930f70	0.07180679
117	0xbe00be57	-0.12572609
118	0x3bfdde30	0.007747434
119	0xbd58d351	-0.052935902
120	0xbe1e410b	-0.154545
121	0x3d236d67	0.039899256
122	0x3c0f860c	0.008759987
123	0xbdf95334	-0.12174073
124	0xbbb3de60	-0.0054891557
125	0xbe4067fe	-0.1878967
126	0x3db74f13	0.08950629
127	0x3d5fa38a	0.054599322
128	0x3d8d7ee0	0.06908965
129	0xbc192eb4	-0.009349514
130	0xbda86177	-0.08221715
131	0x3dca9ad0	0.098928094
132	0xbda3949a	-0.07987328
133	0xbdb7e923	-0.08980014
134	0xbdae5cf1	-0.08513821
135	0xbd9635b0	-0.07334459
136	0xbdca90ce	-0.098909006
137	0xbdd780b9	-0.10522599
138	0xbdd00b3f	-0.10158395
139	0x3da3c206	0.079959914
140	0xbd82767f	-0.063702576
141	0x3cef5db8	0.029219493
142	0x3c8ad5cf	0.016947655
143	0xbd4572d3	-0.048205208
144	0x3d15b3a3	0.036548268
145	0xbe1d4769	-0.15359272
146	0x3dc39a66	0.095509335
147	0xbcc5de5d	-0.024153883
148	0x3db3b6ac	0.08775076
149	0x3dbc18b7	0.091844015
150	0x3de606b1	0.11231745
151	0xbde2c8b5	-0.11073438
152	0xbdbbe3b3	-0.091742896
153	0x3e03e0de	0.12878749
154	0xbd3bf118	-0.04588422
155	0x3d10b986	0.03533318
156	0x3dac302d	0.08407626
157	0x3da2916e	0.07937895
158	0xbdfee82e	-0.124466285
159	0x3d728a69	0.05921403
160	0x3c8cd258	0.017190143
161	0x3dcab7da	0.09898348
162	0xbd2c09d7	-0.04200157
163	0xbdda65f5	-0.10663978
164	0x3da5607e	0.08075045
165	0x3bbea3bc	0.0058178585
166	0xbdc357ba	-0.09538217
167	0xbd42ccd9	-0.04755864

fc3.bias f4 [2]
0	0x3c82ee77	0.01598285
1	0x3e11e4cd	0.14247437
