Rijul/Week4/epoch_1.pth (torch, 230999 bytes, 5 tensors)

conv1.weight f4 [64, 1, 9, 9]
00000000: 984b 33bd c470 b43b 9964 56bd 8bf5 3a3d
00000010: f665 b9bd 6a5c af3d 8f61 9cbd 5c9e adbd
00000020: 0815 8abd ac00 4f3d 032f 24bd acc5 353d
00000030: 1245 b9bd 2940 82bd 109b 19bd 215b 93bc
00000040: 2412 a6bd 6791 9a3d 9d5c d6bc ba3f 163d
00000050: bfe2 a73d 0070 d63c e522 143d 30f9 e33d
00000060: 3ece 3cbd 4287 213d cb3d 3dbd aea0 a13d
00000070: a530 b63d e527 ccbd 01fd ce3d 707c 763d
00000080: 437e 593d 1ef7 4a3d b171 c53d 365c 3ebc
00000090: 9ed4 c0bd 2f4a ffbc 4e35 99bd 1f8c 6d3c
000000a0: 717e 54bc 8881 5ebd 1460 bcbb 39b3 e03d
000000b0: e5c6 b0bb d94d 463b 5bcf 88bc dd98 aa3c
000000c0: e1fd d53d 57b7 953d bbe0 2d3d a4fa de3c
000000d0: a167 f13c 0aa4 383d a3c2 75bc 596c d4bd
000000e0: 2b89 88bd 7e85 c93d 60ba 173c b3b2 b6bd
000000f0: 8333 9b3c d41a c03d cbec d4bd 2974 9bbd
00000100: 43d7 3abd cd72 a73b a9b5 c4bc cb12 3abc
00000110: ee29 dfbd 4943 553d bd74 c93d 198f 8b3d
00000120: 55cd a2bd 13d7 b9bd 5d99 3c3d abcd 5b3b
00000130: 749d 3c3d f1f7 dfbd 3a64 ebbb c055 a03d
00000140: aa74 513d 9c0b 123b f767 a63c 1bc0 3abc
00000150: f43e 79bd 2205 29bd 3540 89bd 90bc bc3d
00000160: 89a0 773d de40 1b3d f346 b1bd 0148 ad3d
00000170: bc9f 0b3d 6208 9e3d 68ee 2ebd 2c28 cc3c
00000180: 050a e03d c8ee 983d 047e b43d 12d9 cabc
00000190: 5475 aa3d 31a2 b3bd 3051 283c 16d4 7cbd
000001a0: 2dc0 cfbc e5d8 e2bc deac 0a3c 59fb cc3d
000001b0: 01a0 593d d259 16bb 9f32 a13d 01ef 61bd
000001c0: 33e5 6e3d b5b8 33bc 244c a1bc 5d3e 533c
000001d0: f724 b0bd 2a28 2d3c e1d8 103d 536f c23d
000001e0: 0055 05bd 7345 283d 6e05 e13d 2a64 47bd
000001f0: 91ed d73d 5b62 64bd efcd 403d 6ffc 2b3d
00000200: 896a fb3c 6dbc b63d 8dce 30bd 90d0 f33c
00000210: 33cf 253a 591a abbd a8ea dfbc b30c 9dbd
00000220: ffb1 3f3d aea0 073c 6c18 273c 0469 08bd
00000230: 0ab5 663a 2439 0fbd 41c6 fa3c c0ac d93d
00000240: 6e2c 6b3c 15f6 54bd d62a 90bd b978 cd3b
00000250: 7150 acbd e295 adbd d169 97bd a423 24bd
00000260: 9d82 c43b fc04 983d be52 253d 070b aa3d
00000270: 2357 92bd eaf5 f63b ca04 cebd 2f4d 7d3d
00000280: c8bc ab3c 01c9 d73d 66ae 9abd ed79 c83d
00000290: bbe8 e13d 54be e03d f22e 183d 2a45 fd3d
000002a0: 059d c53d 351d cc3d c668 a83b e668 a1bd
000002b0: 0a07 423c 287d 2a3d e3c7 5cbd 1361 35bd
000002c0: a35e afbd 7545 73bc b68a f13d a40c 0d3d
000002d0: 2fb7 0e3b e017 9b3c da80 b63d baea 9dbd
000002e0: b60e 8bbd dfdf 9fbc 531f 2cbd e8e5 a43d
000002f0: f920 c73d b0d0 c6bd acdd a3bd 37cb b8bd
00000300: 1dc5 803d fc2f df3d 9356 8ebd 8051 02bd
00000310: e339 713d 3f85 52bd 3f70 d83d e1ae 273d
00000320: 8ede 4fbc 8ade e93c 3d4c 5f3d 9334 babc
00000330: 64cd 88bd 54f2 c73c 5f20 c33c e24f 623b
00000340: 7457 24bc 3b31 b23d 02ba 71bc 8127 023b
00000350: 2452 703d 2a42 53bd 6584 4c3d 5be9 0dbc
00000360: 10aa 2d3d 46df 96bd b06d 2f3c e1da 983c
00000370: d7fc b0bd 8092 99bd a04f 633d 5ab4 a2bc
00000380: de6e 963d 28cf efbd dbf7 86bd 2c92 acbd
00000390: 1744 5f3d beed d63b 8e34 15bc e1e7 88bb
000003a0: b986 99bd 7540 233d a3b2 4abb 88f4 aebd
000003b0: 4151 483d 6139 0a3c 62fc bfbd 6445 963d
000003c0: 4d62 953d f070 18bc 8430 88bd 2dea b03b
000003d0: fa94 ad3d f88d d23d aa00 a9bd 0b54 48bd
000003e0: 7ed5 b23d 7980 623d 124b 8f3d 5f77 5ebd
000003f0: 58e7 c53d 363f b9bd b39c 88bb 317e 833b
-0.043773264 0.005506607 -0.05234203 0.045644324 -0.09052651 0.085625485 -0.07635795 -0.0847747
-0.06742293 0.05053775 -0.040083896 0.044377968 -0.09046377 -0.06359894 -0.037501395 -0.01798779
-0.08108929 0.075472645 -0.026167208 0.036681868 0.08197545 0.026176453 0.03616609 0.11131513
-0.046095125 0.039435633 -0.04620151 0.07891975 0.08895997 -0.09968547 0.101068504 0.060177267
0.05309893 0.049552076 0.096408255 -0.0116186645 -0.094155535 -0.031163303 -0.0748087 0.0144987395
-0.012969599 -0.05432275 -0.005748758 0.10971684 -0.005394804 0.0030258803 -0.016700437 0.020824844
0.10448814 0.0731036 0.042450648 0.027219124 0.02946836 0.045078315 -0.015000018 -0.10372228
-0.06666788 0.09839915 0.009260744 -0.08920803 0.018945461 0.09380117 -0.10396727 -0.07590515
-0.045615446 0.005110121 -0.024012404 -0.01135702 -0.10896669 0.05206612 0.09836719 0.06814403
-0.0794932 -0.09074225 0.046044696 0.0033539336 0.046048597 -0.10935963 -0.007183579 0.078288555
0.05113665 0.0022284752 0.020313246 -0.011398341 -0.060851052 -0.04126466 -0.067017 0.09215653
0.060455833 0.03790366 -0.086561106 0.08460999 0.03408788 0.07716443 -0.04270783 0.0249215
0.10939411 0.07467419 0.08813098 -0.02476171 0.0832316 -0.0877117 0.010273263 -0.0617257
-0.025360191 -0.027691314 0.008464066 0.10008878 0.053131107 -0.002294172 0.07870983 -0.055159573
0.05832405 -0.010969331 -0.019689627 0.0128932865 -0.086008005 0.010568658 0.03536308 0.0949389
-0.032551765 0.041081857 0.10987364 -0.04867951 0.10543359 -0.05575786 0.047071394 0.041988786
0.030690448 0.08922658 -0.043165732 0.029762536 0.00063251256 -0.08354635 -0.027333573 -0.07668438
0.04680061 0.008278055 0.010198694 -0.033303276 0.00088007806 -0.034966603 0.030612113 0.106286526
0.014353855 -0.051992495 -0.0703942 0.006270495 -0.084137805 -0.084758535 -0.0739323 -0.040073052
0.0059970156 0.07422826 0.040362112 0.083028845 -0.07145526 0.0075366395 -0.10059507 0.061841186
0.020964041 0.10536385 -0.07552795 0.097888805 0.11030718 0.10973802 0.037154146 0.123667076
0.0964909 0.09966508 0.005139443 -0.07881336 0.011842499 0.041623265 -0.053901564 -0.04428203
-0.085629724 -0.014848103 0.11794035 0.034435883 0.0021776666 0.018932283 0.08911295 -0.07710786
-0.06789915 -0.01951593 -0.04202206 0.08051664 0.09723086 -0.09707773 -0.08001265 -0.09023135
0.062875964 0.10897824 -0.069501065 -0.031816006 0.058893096 -0.051396605 0.10568284 0.040938262
-0.0126873385 0.028548498 0.054516066 -0.022730147 -0.066798 0.024407543 0.023819147 0.0034532477
-0.010030616 0.08700796 -0.01475382 0.0019859972 0.058672085 -0.05157677 0.04993095 -0.008661593
0.042398512 -0.07366805 0.010707304 0.018659057 -0.086419754 -0.07498646 0.05549586 -0.019861389
0.07345365 -0.11709434 -0.065902434 -0.084263176 0.054508295 0.006559103 -0.009106768 -0.0041780327
-0.074963994 0.039856393 -0.003092923 -0.085427344 0.048905615 0.008436532 -0.0937431 0.07337454
0.0729414 -0.00930427 -0.066498786 0.0053990097 0.08475681 0.10280985 -0.0825208 -0.048908275
0.08732127 0.055298302 0.069967404 -0.05431306 0.09663266 -0.0904526 -0.0041690706 0.004012846

conv1.bias f4 [64]
00000000: 323e c9bc 75ab 90bd f08f 943c 7a8c 85bd
00000010: f5ab 1f3d 8c56 9cbc 3e6f 813d 20bf 3a3d
00000020: 828c f83d 5a15 63bd d2eb 103c 3461 a83b
00000030: 6e74 c0bd 22cf b23d 3cee 973d 0dee a73d
00000040: b432 11bd 89c1 69bd 5607 6e3d efa5 343d
00000050: 7afb 843c 5489 a53b aa3e a6bd 364e 963d
00000060: 191e 6fbd f97e a53d c38a 55bc ba5c e5bc
00000070: e2c8 063d 37ce 1e3d ed4d c63d 12a0 40bc
00000080: cf3d 4a3d cb57 733d 342a 4c3b dc9a c9bd
00000090: 1318 89bc 1e3d ba3d 7977 46bd a2c0 1a3d
000000a0: fefe 67bd d8f5 573c bad7 c93d f51a 19bc
000000b0: 4725 253d 2c82 e73c b8ab 50bd 1421 7cbd
000000c0: c5ad 3abd e000 c4bc 5fa4 9cbc cb50 f73b
000000d0: ae59 4a3d e22b 01bc 9845 2d3c c79b 10bd
000000e0: fd08 b13d e0c8 49bd fe49 93bb 632d 863d
000000f0: f4b8 d13d 6d21 3bbd 53b6 a3bd db94 b8bd
-0.02456579 -0.07063953 0.018135041 -0.065209344 0.03898235 -0.019084238 0.06320046 0.045592427
0.12136175 -0.055440284 0.008845286 0.0051385406 -0.09397207 0.08730914 0.074184865 0.081997015
-0.035448745 -0.057069335 0.058112465 0.04410356 0.016233195 0.005051771 -0.08117421 0.07339136
-0.058378313 0.08080859 -0.013033572 -0.027998317 0.03290642 0.03877088 0.09682832 -0.011756914
0.04937535 0.059409898 0.0031153085 -0.0984399 -0.016735112 0.090936884 -0.04845378 0.037781365
-0.056639664 0.013181172 0.098556 -0.009344806 0.040318754 0.028260313 -0.050945014 -0.061554983
-0.045575876 -0.023926198 -0.019121347 0.007547473 0.04940193 -0.007883998 0.0105756745 -0.03530481
0.086442925 -0.049263835 -0.0044949045 0.065516256 0.10240355 -0.045686174 -0.0799376 -0.09012767

conv2.weight f4 [32, 64, 5, 5]
00000000: b197 073c 83c1 973c 1952 98bb 5300 d0bc
00000010: ea12 89bc d8ae 10bb dbd1 e8bb 9185 89bc
00000020: e49d dbbc e1e3 72bc 3f09 963c 1386 2cbc
00000030: 51dc d939 f46b acbc 1be6 103c 7085 a13b
00000040: 0381 af3c 7046 253c 3202 4ebb 541a 9f3c
00000050: 2ef3 af3c 4949 d73c 64b7 93bc 39de eb3b
00000060: b7e0 a9bc 6270 75bc c971 9c3c c9eb 3f3c
00000070: 2e9b 57bc 3836 6bbc b529 5abc d132 9f3c
00000080: ac38 173c 2045 c43a 2488 87bc 2ac2 083c
00000090: b650 acbb 965a 883c 1192 f33b 8ef2 413c
000000a0: ca93 edbb 6e41 a839 7466 2fbc 5f5b 1e3c
000000b0: d39d 033a b2df a6bc a876 633c 9125 383c
000000c0: 0e09 8e3c 4812 503c fdc4 dabb ba60 3f3d
000000d0: 6a41 2d3c 8952 9fbc a52e c5bc bf62 cebc
000000e0: 3f75 b63c f0bd 033d afab 84b9 24f0 ddbc
000000f0: da13 b2bc 6127 16bd 2475 0fbd 7a2a a0bc
00000100: ec8b 34bd d071 9dbb 71e9 523b 8450 823c
00000110: bb07 fe3c e9f8 593c 271c f13c bd9e ba3c
00000120: cfca b5bb 8a94 e2bb ced7 413c a8b3 263c
00000130: 6c9b 42bc e9fb 86bc a986 a3bc fb91 6bbc
00000140: 5f06 2ebb d4ad a23c 7c47 63bc 8015 acbc
00000150: 64a2 aa3c a4fd 833c ce31 2f3c 3cb2 56bc
00000160: d89f ae3c 55a3 413c e610 c93b 13d8 a93c
00000170: fdea 243c c4ce 993c c101 c8bb 640b 913c
00000180: cf3f 32bc 3e67 e83b 274f 65bc 3f04 b1bc
00000190: d6bc 90bc badc 7cbc fac8 7e3c 26b2 d13c
000001a0: ef2f 8a3c 8440 de3a 9e5e 223b f2aa c73b
000001b0: 9209 ce3c e8ff 4f3c 0e5b 44bc 824a 2dbc
000001c0: f7a0 c33c 4166 853c 2a60 cdbc 1ab8 8ebc
000001d0: f622 803c 3e74 1cbc a5fc b63c 11d4 943c
000001e0: 2124 83bc 4301 123c 8042 1fbb 49af b0bc
000001f0: 2aa9 313c 473e cebb 9535 65bc 18e4 00bd
00000200: 3a02 90bc 77b6 b1bc e5f7 02bd ea67 6aba
00000210: a7cb acbc 5239 3f3b dd3b 3cbc 7452 c8bb
00000220: 1ee6 cf3b 93dd 263c ee58 cf3c e016 163c
00000230: 43c1 fd3c e4fc f03c 89ce 4fbb 5343 3c3c
00000240: d903 d43c 045a 93b9 997c a33c b685 de3c
00000250: c48a 483b 45a7 09bc d19d 60bc e7bf 673a
00000260: eedb 6dbc eee4 d73c c8e8 a3bc 88e8 b73c
00000270: 6e4d 9d3c eca3 9abc f1dd 54bc 430c c43c
00000280: ccbd 05bb f150 74bc 258b 853b adf9 37bb
00000290: d729 8a3b 7853 363c 620d a3bc b9a1 38bc
000002a0: 2cc4 e43a f73a c83c 21bd 91bc 6fb1 4abc
000002b0: d8c2 6d3c 61b2 ca3c aed3 583b 9282 913b
000002c0: 7e9d 793c e062 9bb9 5344 963c 31cf eb3c
000002d0: 9d90 a73c adaf 95bc 895b d83c 93f7 da3c
000002e0: a91f 343c 23a0 07bc 381e e7ba b3bc 6dbc
000002f0: c6ee c2bb eecd 383c c7e2 ebbb ad2d aebb
00000300: fdd3 90bb cf4f c3ba 1446 d53a bfdc 6bbb
00000310: ce38 a4bc 6c91 a738 f6da e2bb 5925 82bb
00000320: ffc2 a2bc c83b 0cbd 5f82 dfbc 3e1c 383c
00000330: efef 3d3c 2ba6 b03c ad5b 55bb c1dc 45bc
00000340: 0b24 8a3c d79b 273c 8bf7 b1bb c389 0e3c
00000350: b617 123b 39e7 9a3b 577c bcbc c791 033d
00000360: bc5a ae3c eb01 203c 0084 57bc 73f2 fdbc
00000370: c1f8 eabc fe18 833c fce2 063c a404 babc
00000380: bf15 3dbb 2ef7 db39 a922 673c 7ede 563a
00000390: 2b22 e939 97bc 8b3c e931 973c 579c 5c3c
000003a0: a2e6 033d fe38 e33c 4d22 78b9 34bb ecbb
000003b0: 4138 06bb 0faa 3cba ce9d 05bc 4cec d9bc
000003c0: e25c c6bc 134d 3fbc 8a9f 04bc 8cec d2bc
000003d0: b7c8 5bbc 4034 8e3c 71f8 73bb 6730 44bc
000003e0: b0b8 36bb 5387 1b3c ff35 243b a8b6 873c
000003f0: 1b25 273c 3c09 d43b 04f6 053c 41e7 30bd
0.008275912 0.01852489 -0.0046484587 -0.02539078 -0.016732652 -0.0022076871 -0.007105095 -0.016787322
-0.026808687 -0.014824838 0.018314956 -0.010530013 0.00041553614 -0.02104757 0.008843924 0.004929237
0.021423822 0.010087594 -0.0031434414 0.019421734 0.021478262 0.026280062 -0.018031783 0.007198122
-0.020737035 -0.014980407 0.019097226 0.01171393 -0.013159556 -0.0143561885 -0.013315608 0.01943341
0.00922982 0.0014974214 -0.01654441 0.008347074 -0.005258645 0.016644757 0.007433184 0.011837615
-0.007250284 0.00032092206 -0.010705579 0.009665339 0.0005020771 -0.020370338 0.01388327 0.011239425
0.017338302 0.012699671 -0.006676315 0.046723105 0.010574678 -0.019448536 -0.024070093 -0.02519357
0.022272704 0.03216356 -0.00025304916 -0.027092047 -0.021737982 -0.03665865 -0.035023823 -0.019551504
-0.044078752 -0.0048048273 0.00321826 0.015907533 0.031009546 0.013303974 0.02943237 0.02278077
-0.0055478583 -0.00691468 0.011831237 0.010174669 -0.011877876 -0.016477542 -0.019961672 -0.014378066
-0.002655409 0.019858278 -0.013872024 -0.021006346 0.020829387 0.016112156 0.010693027 -0.013104018
0.021316454 0.011818727 0.0061360477 0.020732915 0.010065791 0.018775351 -0.0061037247 0.017705627
-0.010879471 0.0070923856 -0.013995922 -0.02160847 -0.017668169 -0.015433485 0.015550846 0.025597643
0.01686856 0.0016956483 0.0024775635 0.0060933763 0.025151048 0.01269529 -0.0119846 -0.010576846
0.023880465 0.01628411 -0.025070269 -0.01742177 0.01564167 -0.009549199 0.022337267 0.018167527
-0.016008439 0.008911434 -0.0024301112 -0.021567957 0.0108435545 -0.006294045 -0.013989826 -0.031467527
-0.017579187 -0.021693451 -0.031974692 -0.0008941876 -0.021093203 0.0029178453 -0.011488882 -0.006113345
0.006344571 0.010184663 0.02531096 0.009160727 0.030975943 0.029417463 -0.0031708798 0.011490661
0.025880741 -0.00028105092 0.019956874 0.027163368 0.003060029 -0.008401697 -0.013709501 0.00088405464
-0.014517767 0.02635428 -0.02000846 0.022449747 0.01920196 -0.018876992 -0.012992368 0.023931628
-0.0020407317 -0.014911876 0.004075425 -0.0028072402 0.0042164135 0.011128299 -0.019903842 -0.011269026
0.0017453483 0.02444218 -0.017790379 -0.012371405 0.014511786 0.02474326 0.0033085155 0.004440614
0.015235303 -0.0002963757 0.018343126 0.02878532 0.0204547 -0.018272245 0.026410835 0.02672938
0.0109938765 -0.008277926 -0.0017632907 -0.014510321 -0.005948874 0.011279566 -0.007198665 -0.0053155036
-0.004419802 -0.0014901104 0.0016271495 -0.003598973 -0.020046618 7.9902675e-05 -0.006923075 -0.0039717373
-0.019868372 -0.0342367 -0.027283845 0.011237202 0.011592849 0.02156361 -0.0032555864 -0.012076558
0.01686289 0.010230026 -0.0054311207 0.008699837 0.0022291965 0.004727271 -0.023008509 0.032121446
0.0212835 0.009766082 -0.01315403 -0.030999398 -0.028683068 0.016003128 0.008232828 -0.022707291
-0.0028852073 0.00041955098 0.014107385 0.0008196606 0.0004446668 0.0170577 0.018456416 0.013465009
0.03220237 0.027737137 -0.00023663901 -0.007224465 -0.0020480307 -0.00071969716 -0.008155299 -0.026601933
-0.024214212 -0.011676091 -0.008094678 -0.02574756 -0.013414553 0.0173589 -0.003722694 -0.011974431
-0.0027881078 0.009492713 0.0025056598 0.01656659 0.010201718 0.0064708274 0.0081763305 -0.04318929

conv2.bias f4 [32]
00000000: 074d 08bc 3f24 a8bc 3fff 7fba 4db1 6b3c
00000010: e525 db3c 2e14 b73c cfe2 3fbc 70c9 b33b
00000020: d4f7 eb3b af9e 2cbc 54b7 9a39 735f 0f3c
00000030: bc6c d33c 9766 093c b0b6 94bb e33f a5bb
00000040: d88d 82bc 1ead 8dbc a152 823c aa05 b83c
00000050: bbf7 823c 235b ceba 9ef5 94bb 380d 213b
00000060: 2500 963c 5769 bd3b 9bee 823c 644a 943c
00000070: afbf 1c3c a001 5abc 3a58 b23a 06c1 baba
-0.008319146 -0.020525096 -0.00097655127 0.0143855335 0.026751468 0.02234849 -0.01171179 0.0054866597
0.0072011743 -0.01053588 0.0002950976 0.008750784 0.025808685 0.008386276 -0.0045383796 -0.0050430163
-0.015936777 -0.017294463 0.015908541 0.022463638 0.015987268 -0.0015743714 -0.0045458814 0.002457453
0.018310616 0.0057803798 0.015982917 0.018101878 0.009567185 -0.0133060515 0.0013606616 -0.0014248199

conv3.weight f4 [1, 32, 5, 5]
00000000: e50c 9d3c 91fc 953c ab4c daba df7e c93c
00000010: 76e6 f93c ddb5 efbc af42 d23a 3dc7 0abd
00000020: 792f 893b 04f0 283c aa59 12bb 8b19 e73c
00000030: 439d 4d3c e9ac f2bc e00d 41bb 58dd 7dbc
00000040: 4e25 e7bc 9a2a ab39 be51 01bd 166e c03c
00000050: b8aa 933b 168b 523c fc0a a43c f29a e43c
00000060: 9ac6 8dbc 66ff 213b 251e 07bd c07d 073c
00000070: ca0c da3c 7037 b4bc ef17 aa3c d89a 84bc
00000080: fa67 273c 384a 7abc 4027 e43b 39e9 07bd
00000090: 7bea d93c 0fa0 02bc 83d6 063d d791 4cbc
000000a0: ff24 803c 7bd0 87bc 79a6 6dbc a795 0cbc
000000b0: 4b6b 8c3c 183c 6a3c 9f84 a93c 5f38 b3bb
000000c0: 7549 9b3b 6d59 b43c 1150 62bc 9848 3ebc
000000d0: f97f dc3c 7d4a f4bc e224 8cbc 048d a0bc
000000e0: 3781 f3bb 40d4 d4bc e0fa 063c a03a cabc
000000f0: cd96 7ebc cfdd 0cbd 2457 c13c 8878 b1bc
00000100: 83d0 8abb 5bb6 acbc 1cef 9fbb 816a ddbb
00000110: b07f 3cbc c69f 04ba 897b 763c ca7a ee3c
00000120: 2ed8 d63c 2df0 d6bc e025 86bb f830 eebc
00000130: 28e2 8d3c 1adf c03c 00e3 053c 5934 343c
00000140: bd54 0d3d 750a 94bb 9e07 01bd 0510 91bc
00000150: 8a25 35bc 81d9 8b3c 18ac 1c3a aa77 e03c
00000160: 7e28 9b3c 1709 34bc 072e 28bc 62af 5cbc
00000170: 168d 0abd 7dcd 42bc c749 8abc 12c3 01bc
00000180: 5a29 13bc 1d55 75bc 4e95 8abc dad1 b13b
00000190: 0716 d53b 75f5 003c fbdb 6d3c f3db 2cbb
000001a0: 1cc9 813b 305b e2bb f641 033d 2417 a338
000001b0: 689a d03c fc91 a9bc aef8 debc 4c3e 993b
000001c0: 9506 02bd 7446 aa3c af44 a73c 61d8 ee3c
000001d0: fb23 043d 7305 3e3c c859 613c 3d05 a8bb
000001e0: d30c 053d 5d4d 7a3c 9dfd 06bc 9297 04bd
000001f0: 2c70 953b 2aa3 8c3b 5305 e43c 317a b03c
00000200: 7a75 013d ab7b 853b 8255 403c e2c3 d5bc
00000210: e226 e23b 1f77 303c 148f 93bc 5b21 83bc
00000220: d2c2 993c 51c8 86bc 245e 1dbc a8a2 e73c
00000230: 5494 f43c a907 d1bc 3b5d e5bc 7094 d23c
00000240: c281 04bc 5319 a03b 8fd7 acbc 881c 5cbc
00000250: 8b65 ea3c 4253 aebc f376 593c 7b6a e73a
00000260: 8c03 373c d4fd dd3a 3198 f0bb e07c 583c
00000270: 2872 263c a45b 44bb e326 c43c 9fcc 013d
00000280: 553f 9b3c 764a 1dbc 9472 d0bc b282 c3bc
00000290: bb1f 8dbc b29b 2bbb 940d 973c eaf7 223c
000002a0: 8e45 023d 4ffe 0abd c7e7 9fbc b2a4 053d
000002b0: 7888 cdbc 130e ba3c 558a be3a ca39 69bb
000002c0: 32f6 cf3c 1097 e13c cf66 68bc b094 dbba
000002d0: f9f5 083d 9160 f33c 524f 6a3c 10d7 adbc
000002e0: 0154 c1bc 50cf d23c cdf6 a73c e4b0 85bb
000002f0: 1e25 0c3d 1036 cc3c c807 f2bb 57ce 803c
00000300: c1f9 0c3d dbfe a83c e1f3 8abc 1936 07bd
00000310: 67f5 353c 399c 5b3c 3def 0dbd 0a9f b33b
00000320: 0f94 b2bc a759 683c 8173 8dbc 4877 dcbc
00000330: 9243 0b3d e53e ad3c 713e 6abc b8ef d0bc
00000340: 37cf c33c 01e0 b4bc 65ba 2bbc 6a17 81bc
00000350: b0a2 2c3c 6aef 13bb dd49 573c 9423 a2bc
00000360: 25ca d53c ea02 863b 4908 c8bc cb97 d3bc
00000370: 1900 b03c 6824 7abc 4037 223c 1b06 6e3a
00000380: 7483 86bc 9b2c 0e3d 8ceb 4dbc f331 783c
00000390: 7822 b93c 40a4 433c c230 0b3d 3761 c2bc
000003a0: 08e5 853b 06dc d4b9 80b4 8f3c 7a1b 70bc
000003b0: df67 a7bc 4897 dabc 8087 cb3c 78f7 283c
000003c0: 8c61 05bd 4714 e3ba c02b eabc 0896 ebbc
000003d0: f43e b73c 9cfe 8dbc b5c4 ae3c cb19 083d
000003e0: 2af2 b63b 6339 813c 09f4 fcbc 4621 77bc
000003f0: bc5f feba 90ba f73b e945 6a3c 4231 9c3c
0.019171188 0.01830891 -0.0016654929 0.02459663 0.0305054 -0.029261524 0.0016041602 -0.033881415
0.0041865674 0.01031113 -0.0022331276 0.028210422 0.012549701 -0.029623466 -0.0029457733 -0.015494667
-0.02821603 0.00032647402 -0.031572096 0.023489993 0.0045064352 0.0128505435 0.020024769 0.027905915
-0.017306615 0.002471888 -0.032987732 0.008269727 0.026617426 -0.02199909 0.020763366 -0.016187117
0.010217661 -0.015276484 0.006962687 -0.033181403 0.026601067 -0.007972731 0.032919418 -0.012485943
0.015642641 -0.016578903 -0.014505022 -0.008580602 0.017141005 0.014296554 0.020693121 -0.0054693664
0.0047389814 0.022015298 -0.013813035 -0.011613987 0.02691649 -0.029820675 -0.01710743 -0.019598491
-0.007431175 -0.025980115 0.008238524 -0.024686158 -0.015538883 -0.03439122 0.023601122 -0.02166392
-0.0042362823 -0.021083048 -0.004880799 -0.006757081 -0.011505052 -0.00050592085 0.0150441015 0.029111285
0.02622613 -0.026237572 -0.0040938705 -0.029076084 0.017319754 0.023543883 0.008171797 0.010998809
0.03450464 -0.004517848 -0.031501405 -0.017707834 -0.011056313 0.017071487 0.00059765717 0.02740081
0.018940207 -0.010988495 -0.01026488 -0.013469549 -0.033825956 -0.011889813 -0.016880883 -0.007920044
-0.008982027 -0.014973906 -0.016916897 0.0054266276 0.00650287 0.0078710215 0.014517779 -0.0026376217
0.0039607417 -0.006907843 0.032045327 7.776756e-05 0.025464252 -0.020699494 -0.02721819 0.004676616
-0.03174456 0.020785548 0.020418493 0.029155912 0.032260876 0.011597979 0.013754316 -0.0051275776
0.032482933 0.015277234 -0.008239177 -0.03237111 0.004560491 0.0042919116 0.02783457 0.02154264
0.031606175 0.0040735803 0.011739137 -0.02609438 0.006901608 0.010770588 -0.01801256 -0.016007116
0.018769655 -0.01645294 -0.009604964 0.028275803 0.029855885 -0.025516348 -0.027998557 0.025705546
-0.008087577 0.0048858314 -0.02109888 -0.013434537 0.028612873 -0.021279935 0.013272989 0.0017655635
0.011170279 0.0016936609 -0.0073423614 0.013213366 0.010159053 -0.0029961849 0.023944324 0.031689283
0.018951098 -0.009600272 -0.02544526 -0.023866031 -0.017227044 -0.002618533 0.018439092 0.009946803
0.031804614 -0.033933934 -0.0195197 0.03262777 -0.025089487 0.02271179 0.0014537076 -0.0035587423
0.02538595 0.027537853 -0.014184668 -0.0016752686 0.033437703 0.029709132 0.014301138 -0.021220714
-0.023599626 0.02573362 0.020503426 -0.004079925 0.034215085 0.024928123 -0.0073861815 0.01572339
0.03441787 0.020629337 -0.016961994 -0.033010576 0.011105872 0.013403946 -0.034651984 0.0054816054
-0.021799115 0.014181531 -0.01726699 -0.026912346 0.033999987 0.021148155 -0.014297114 -0.025504932
0.023902519 -0.02207947 -0.010481452 -0.015758235 0.010536835 -0.0022573122 0.013140169 -0.019792356
0.026097367 0.004089703 -0.024418013 -0.025829216 0.021484422 -0.015267469 0.009900868 0.0009079889
-0.016420104 0.034710508 -0.012568366 0.015148628 0.022599444 0.011941016 0.033982046 -0.023727996
0.0040861405 -0.0004059972 0.017542124 -0.014654988 -0.020435272 -0.026683465 0.024844885 0.010312907
-0.03256373 -0.0017324769 -0.028585315 -0.028758064 0.022368886 -0.017333321 0.021334032 0.033227723
0.0055830674 0.015774434 -0.030878084 -0.015083617 -0.0019407193 0.007560082 0.014298894 0.019066457
