Rijul/Week4/srcnn.pth (torch, 82247 bytes, 6 tensors)

conv1.weight f4 [64, 3, 9, 9]
-0.056736954 0.05654396 -0.027140837 0.05972313 0.00013106214 -4.2959233e-05 -0.059442833 -0.034508787
-0.042524166 0.006322131 -0.019426987 0.038620967 -0.04493335 -0.007174974 -0.028657997 -0.0039654025
-0.056699716 0.026865363 0.04785754 -0.011443231 0.016024662 0.062608115 0.04388687 0.011940475
0.02723599 0.00018812984 0.025058417 0.009962061 0.015035927 -0.025316082 -0.028480165 0.028532038
-0.03710342 0.04885048 0.024159152 0.048326112 0.036615383 -0.00091894844 -0.048528075 -0.038277727
0.060159016 -0.04931425 0.037030205 -0.038802188 -0.034991696 -0.045201484 0.029776819 -0.049671058
-0.020910759 0.055644594 0.007363681 -0.045787092 -0.00034155583 0.036663935 0.061452635 -0.024239685
0.012426328 -0.020924285 0.044154458 -0.00778011 -0.063499995 0.008688514 -0.03389361 0.05207631
0.00035140576 0.06344145 0.02133043 0.013813836 0.005831511 -0.057055358 -3.9607175e-06 0.057126883
0.044563748 0.033248454 0.05221452 0.014384167 0.05724559 0.02036612 0.030340573 0.010729149
0.024769744 -0.036550272 -0.015136522 0.03565081 0.016237186 0.016918974 0.016781595 0.032202743
-0.023006164 -0.047916457 0.02065896 0.04074026 -0.03783891 -0.018553646 -0.0115253255 -0.060724556
-0.034593396 0.0025748292 -0.049991842 0.046678547 -0.034254123 0.011906739 0.0056198994 -0.01992548
-0.047069076 0.054482568 -0.035913978 0.0026878535 -0.03711674 -0.044539675 0.043969125 -0.04008087
-0.04206604 0.015873166 0.06095876 0.023597524 0.027877193 0.016611753 -0.06365491 0.033706404
-0.03980023 0.0383275 -0.029575028 -0.05291855 0.028466552 0.028781312 -0.025129458 0.0562002
0.009022335 0.053088814 0.022183957 0.040941548 -0.041922595 0.032772385 -0.009872135 0.022517439
-0.052830063 -0.001155186 0.03843059 -0.00038680312 0.06085076 -0.021444857 0.02686849 0.013084942
0.039911535 0.0045379577 -0.00021077783 -0.028854556 0.02707682 0.0067808917 -0.030113505 -0.060589798
-0.02445359 -0.049065307 -0.01406716 0.017544445 -0.061905254 0.043044224 0.0438323 0.011234552
-0.045055553 0.060513217 0.05621505 -0.061934356 -0.039262876 0.0034880002 0.03750096 -0.06265122
-0.0658571 -0.06469934 0.04804017 -0.0384637 0.038042255 -0.031325344 0.008492343 0.04124011
0.045895122 0.047348805 0.0042950506 0.017747717 -0.006952483 0.034860205 -0.06709273 -0.06725802
-0.0269273 0.034438685 -0.025738701 -0.0023900964 0.024935396 -0.05015633 -0.013282635 0.042827446
0.057213634 0.0018707449 -0.004696462 0.024684398 -0.06818253 -0.029787142 -0.048653618 0.05303384
-0.009191543 -0.018267734 0.0062106885 0.041758776 -0.011358326 -0.02730626 -0.043287616 0.029555691
0.027523035 0.039436076 -0.004609631 0.02289302 0.057360742 0.013545435 -0.022737242 -0.041922085
0.017676687 0.024565909 -0.014420622 0.027690833 -0.002861574 -0.02868384 -0.06142256 -0.043676563
-0.051221136 -0.06294473 0.007728027 0.020608827 0.039105553 0.016659293 -0.043793913 0.052596945
-0.06282312 -0.067447804 -0.020228464 -0.045044824 0.05012635 -0.049822032 -0.041654304 0.04197069
-0.039986443 -0.027711924 0.037411638 0.017019188 0.038627934 0.04324287 0.04972159 -0.054086167
0.0041172514 -0.035484873 0.013203298 0.005444471 0.042454515 -0.030118238 0.0015446431 0.05849528
00000000: 0265 68bd a49a 673d 7656 debc 3ea0 743d
00000010: ba6d 0939 202f 34b8 547a 73bd 1659 0dbd
00000020: d22d 2ebd e129 cf3b 5825 9fbc 0531 1e3d
00000030: 080c 38bd 0b1c ebbb 2dc4 eabc 35f0 81bb
00000040: f63d 68bd c014 dc3c 4506 443d 647c 3bbc
00000050: 2746 833c af38 803d b8c2 333d fba1 433c
00000060: 031e df3c b844 4539 4f47 cd3c ea37 233c
00000070: 4059 763c ac63 cfbc 3c4f e9bc 05bc e93c
00000080: c1f9 17bd 7117 483d 6ae9 c53c 9af1 453d
00000090: 03fa 153d 96e5 70ba 60c5 46bd 1bc9 1cbd
000000a0: 4d69 763d bdfd 49bd fcac 173d 0bef 1ebd
000000b0: 7453 0fbd 3125 39bd 84ee f33c e173 4bbd
000000c0: 0a4d abbc 96eb 633d 094b f13b 3f8b 3bbd
000000d0: d912 b3b9 ec2c 163d c2b5 7b3d 4e92 c6bc
000000e0: cc97 4b3c 6869 abbc 4edb 343d 4bf0 febb
000000f0: 490c 82bd 455a 0e3c 07d4 0abd f84d 553d
00000100: e23c b839 97ed 813d 27bd ae3c 6d53 623c
00000110: 4316 bf3b e1b2 69bd 4ee6 84b6 e1fd 693d
00000120: 7a88 363d 882f 083d e4de 553d 92ab 6b3c
00000130: 5a7a 6a3d d9d6 a63c cb8c f83c 50c9 2f3c
00000140: ebe9 ca3c bdb5 15bd 2dff 77bc 9506 123d
00000150: d903 853c a999 8a3c 8e79 893c 06e7 033d
00000160: 6c77 bcbc 0c44 44bd fb3c a93c 42df 263d
00000170: f9fc 1abd d1fd 97bc b8d4 3cbc 50ba 78bd
00000180: ceb1 0dbd 77be 283b 3fc4 4cbd 0132 3f3d
00000190: 0d4e 0cbd 7c14 433c 2227 b83b c33a a3bc
000001a0: 81cb 40bd 1d29 5f3d 891a 13bd b326 303b
000001b0: b907 18bd 3c6f 36bd f818 343d d72b 24bd
000001c0: 714d 2cbd 7108 823c e5af 793d 984f c13c
000001d0: b65e e43c 5f15 883c 815d 82bd ba0f 0a3d
000001e0: 9105 23bd 4cfd 1c3d 5447 f2bc 1fc1 58bd
000001f0: b032 e93c c9c6 eb3c 4bdc cdbc 2e32 663d
00000200: 6ad2 133c a873 593d 21bb b53c 53b2 273d
00000210: 07b7 2bbd 563c 063d bcbe 21bc 7e76 b83c
00000220: 5664 58bd 9c69 97ba 6569 1d3d d6cb cab9
00000230: a63e 793d 20ad afbc 4f1b dc3c 3962 563c
00000240: 477a 233d 26b3 943b 3e04 5db9 6460 ecbc
00000250: 35d0 dd3c 3e32 de3b 99b0 f6bc 022d 78bd
00000260: e552 c8bc b4f8 48bd f279 66bc 5eb9 8f3c
00000270: 5d90 7dbd 244f 303d 7f89 333d 2011 383c
00000280: 2c8c 38bd b5dc 773d c141 663d e1ae 7dbd
00000290: 1cd2 20bd ef96 643b 9b9a 193d 484f 80bd
000002a0: 16e0 86bd 1681 84bd c5c5 443d 1d8c 1dbd
000002b0: 32d2 1b3d 014f 00bd 7823 0b3c 64eb 283d
000002c0: 86fc 3b3d d2f0 413d 7fbd 8c3b a963 913c
000002d0: a8d1 e3bb 93c9 0e3d ea67 89bd 93be 89bd
000002e0: a496 dcbc 940f 0d3d f8d9 d2bc 2aa3 1cbb
000002f0: 5145 cc3c b970 4dbd 699f 59bc d56b 2f3d
00000300: d858 6a3d c833 f53a c7e4 99bb ef36 ca3c
00000310: 48a3 8bbd 2a04 f4bc 0449 47bd 033a 593d
00000320: 2098 16bc 37a6 95bc 0883 cb3b 400b 2b3d
00000330: 4618 3abc 61b1 dfbc 5b4e 31bd c71e f23c
00000340: fd77 e13c b987 213d 630c 97bb 258a bb3c
00000350: 19f3 6a3d aced 5d3c 7443 babc 7eb6 2bbd
00000360: b3ce 903c 723e c93c 7944 6cbc e3d7 e23c
00000370: 3f89 3bbb 5ffa eabc 3996 7bbd 32e6 32bd
00000380: 41cd 51bd 2be9 80bd 643b fd3b d8d3 a83c
00000390: 252d 203d 1279 883c 3f61 33bd e56f 573d
000003a0: 68a9 80bd 1322 8abd 2ab6 a5bc ec80 38bd
000003b0: 4a51 4d3d 3012 4cbd b49d 2abd 75e9 2b3d
000003c0: d3c8 23bd 1e04 e3bc f23c 193d d36b 8b3c
000003d0: 5338 1e3d 701f 313d dea8 4b3d 7589 5dbd
000003e0: 02ea 863b 9658 11bd a552 583c 8867 b23b
000003f0: c9e4 2d3d 86ba f6bc 9f75 ca3a bf98 6f3d

conv1.bias f4 [64]
0.06413618 0.0020161744 -0.026372466 -0.036966708 -0.032096565 0.0044169477 -0.02572158 0.043144137
0.014450327 0.013250644 -0.02048594 -0.037213493 -0.036768813 0.028418373 0.012491665 -0.035303798
-0.005275576 0.027712636 0.036570136 0.015525985 0.041797552 -0.046598952 -0.0458589 -0.026505725
-0.029146422 0.024957858 0.012432545 -0.057609294 0.064094014 -0.02447312 -0.027079724 -0.031456597
0.035713807 0.037415147 0.035269793 -0.0048863655 0.0202154 0.03385433 0.002846473 -0.0080344975
0.0010617408 -0.051218543 -0.019905008 0.04271465 0.032960884 -0.030139256 -0.0127552375 0.06709939
0.015134772 0.050767865 0.04144605 -0.006581383 -0.052769087 -0.028599044 0.055520583 -0.033715285
-0.002110921 -0.02552348 0.03593286 -0.012849729 -0.017172841 0.00024657618 0.07009356 -0.021371227
00000000: d459 833d cb21 043b 120b d8bc 676a 17bd
00000010: b077 03bd 0bbc 903b 10b6 d2bc e8b7 303d
00000020: 10c1 6c3c 3b19 593c 21d2 a7bc 2d6d 18bd
00000030: e59a 16bd a6cd e83c d7a9 4c3c b79a 10bd
00000040: bdde acbb 9c05 e33c 91ca 153d b360 7e3c
00000050: e933 2b3d 8bde 3ebd 8bd6 3bbd 8922 d9bc
00000060: 7ac4 eebc 6c74 cc3c e0b1 4b3c b9f7 6bbd
00000070: b943 833d da7b c8bc 4cd6 ddbc a2d8 00bd
00000080: a448 123d a040 193d 0f77 103d ce1d a0bb
00000090: c49a a53c d7aa 0a3d e48b 3a3b 20a3 03bc
000000a0: 1c2a 8b3a 89ca 51bd d40f a3bc 8ff5 2e3d
000000b0: fe01 073d 9ae6 f6bc 58fb 50bc 686b 893d
000000c0: d6f7 773c f7f1 4f3d 55c3 293d a4a8 d7bb
000000d0: 6624 58bd 8b48 eabc 8d69 633d 0a19 0abd
000000e0: 6157 0abb 9e16 d1bc 562e 133d ab87 52bc
000000f0: 0fae 8cbc e546 8139 368d 8f3d b612 afbc

conv2.weight f4 [32, 64, 1, 1]
-0.122426026 0.032910436 0.08885647 0.07167394 0.10478621 -0.06773707 -0.0056791715 0.02289459
0.10404076 -0.08626813 0.10390411 -0.016285669 -0.06198876 0.020119546 -0.014790304 0.020813562
0.03668202 -0.03866689 0.08807068 -0.05541475 -0.025561195 -0.024747932 0.067582764 0.027068187
0.055667154 -0.06338178 -0.007840365 -0.0758268 0.012933468 -0.028935352 -0.12110273 -0.119331844
0.038150173 -0.04041796 0.002898042 -0.12424451 -0.066878475 -0.010595978 0.10254799 0.034275167
-0.081329085 0.033277214 -0.0536708 -0.03517225 0.002651429 0.095122136 0.046971668 0.096837796
0.08593467 -0.056374807 0.017024685 -0.021665841 -0.052834194 -0.082232244 0.06481366 -0.091681875
0.036845867 0.11723816 0.023118144 0.023344474 -0.11139853 0.014522794 -0.08375065 -0.037454516
0.06844355 0.11210113 0.003157893 -0.093334064 0.04627515 -0.114452474 -0.034961242 -0.12230795
-0.103207 0.034669656 0.10182101 0.00911246 -0.0640728 0.119569816 0.058452863 -0.048743356
-0.07554941 0.014384299 -0.06630916 0.04914385 -0.11578248 -0.12398965 0.066396326 -0.07964041
-0.066587426 0.060717627 0.098059736 0.1140881 -0.005156454 0.10386081 -0.03707091 -0.0040236344
0.031027 0.10586596 -0.09259804 -0.037950553 0.054713942 0.07974492 -0.062129837 0.044091143
-0.02512607 0.0930893 -0.0049289116 0.0072506717 -0.053632315 0.044193916 0.04785713 -0.009418554
0.06424639 -0.116255455 -0.033548146 -0.05104523 -0.069802575 0.085079305 0.10170752 0.064835675
-0.09344149 0.10529261 0.06486502 -0.10686948 0.009173314 0.086382516 0.0025105132 -0.04054011
0.11754382 -0.09503754 0.11728045 0.0043839375 0.053792134 0.07259767 -0.041228347 -0.029665498
-0.0009899831 -0.0035155225 -0.0011419093 0.09772353 0.03580805 -0.07131993 -0.08066306 -0.12136277
-0.044702504 0.07962803 0.09867504 -0.11189432 -0.041183166 -0.055248722 0.12538761 0.033400133
0.080112636 -0.012364391 0.08986808 0.041440587 -0.038888488 -0.085126504 0.0046767388 -0.10103867
0.07676912 0.123481885 -0.10318268 0.090167224 0.075292066 -0.027023183 0.09296076 0.1080378
-0.051010374 0.034629066 0.07565854 0.022709608 -0.11927117 -0.049250748 0.06605756 -0.011573082
0.1171573 -0.09936562 0.03417323 0.1076787 -0.114182726 -0.024167435 -0.09892997 -0.032459706
-0.06762502 0.0053672935 -0.011940073 -0.044106048 0.00022872107 0.05534021 0.056357652 -0.03449601
0.057042357 -0.00073776406 0.119266905 -0.009391801 0.097677104 0.10888051 -0.09758902 0.113601536
-0.009821255 0.026410803 0.05930124 0.07244349 -0.083640195 -0.0127481455 -0.1081922 0.09572576
-0.0656731 -0.077631876 0.1211801 -0.01372333 0.121969566 -0.0933447 -0.07404528 -0.054597307
-0.081659034 0.011643138 -0.029104207 -0.09523224 0.12947805 -0.040319953 0.09665154 0.031985868
-0.0612313 0.010412685 -0.06791822 -0.02215303 -0.11358979 0.04004604 0.11412056 0.083788946
-0.0769518 -0.11221062 -0.12636131 0.014229401 0.12299883 0.114844255 -0.015535746 0.015748743
-0.11022954 -0.0092908 0.06281339 -0.061584655 -0.09396367 0.12340871 0.13521902 -0.12204445
0.054930113 0.00702967 0.09632336 -0.094109505 0.021936651 0.0476303 -0.11362374 -0.12131768
00000000: 7fba fabd 18cd 063d 62fa b53d c9c9 923d
00000010: 279a d63d bcb9 8abd 5818 babb 6f8d bb3c
00000020: 5213 d53d 58ad b0bd aecb d43d 8669 85bc
00000030: ede7 7dbd bfd1 a43c 0853 72bc 3481 aa3c
00000040: e33f 163d 2c61 1ebd 675e b43d 94fa 62bd
00000050: b665 d1bc 2dbc cabc d568 8a3d 1abe dd3c
00000060: 3e03 643d 4fce 81bd e074 00bc 154b 9bbd
00000070: e6e6 533c d509 edbc b504 f8bd 4164 f4bd
00000080: 5b43 1c3d 4e8d 25bd 14ed 3d3b e873 febd
00000090: 95f7 88bd c19a 2dbc ae04 d23d 1e64 0c3d
000000a0: dd8f a6bd b04d 083d ead5 5bbd c710 10bd
000000b0: 99c3 2d3b 65cf c23d 5d65 403d e552 c63d
000000c0: 84fe af3d 45e9 66bd 5a77 8b3c 907c b1bc
000000d0: ab68 58bd 6169 a8bd 06bd 843d b5c3 bbbd
000000e0: b1eb 163d 8f1a f03d 4362 bd3c e93c bf3c
000000f0: ea24 e4bd 03f1 6d3c 7685 abbd e869 19bd
00000100: 222c 8c3d 4795 e53d a7f4 4e3b ee25 bfbd
00000110: 038b 3d3d 0f66 eabd 8533 0fbd 977c fabd
00000120: 315e d3bd c501 0e3d 8987 d03d 6d4c 153c
00000130: 9a38 83bd 05e1 f43d 456c 6f3d 1da7 47bd
00000140: a6b9 9abd 1fac 6b3c 19cd 87bd 104b 493d
00000150: 5d1f edbd 49ee fdbd ccfa 873d 831a a3bd
00000160: fd5e 88bd 0cb3 783d 8bd3 c83d 06a7 e93d
00000170: 79f7 a8bb fab4 d43d abd7 17bd b1d8 83bb
00000180: 562c fe3c 41d0 d83d 0ba4 bdbd 0a72 1bbd
00000190: ba1b 603d 4e51 a33d db7b 7ebd ea98 343d
000001a0: 30d5 cdbc 9aa5 be3d b582 a1bb 0b97 ed3b
000001b0: 8fad 5bbd ae04 353d d705 443d 4750 1abc
000001c0: 9c93 833d 5717 eebd c869 09bd ce14 51bd
000001d0: a7f4 8ebd 0f3e ae3d 084c d03d 91c8 843d
000001e0: 405e bfbd a7a3 d73d f4d7 843d 63de dabd
000001f0: ab4b 163c 51e9 b03d 6c87 243b 630d 26bd
00000200: d0ba f03d 0ba3 c2bd bc30 f03d 22a7 8f3b
00000210: 2455 5c3d 16ae 943d 0edf 28bd 0f05 f3bc
00000220: 52c2 81ba ae64 66bb 1eac 95ba 4623 c83d
00000230: 76ab 123d 2f10 92bd ad32 a5bd 0b8d f8bd
00000240: f919 37bd 0514 a33d 2416 ca3d d928 e5bd
00000250: aeaf 28bd 7c4c 62bd 9c65 003e 94ce 083d
00000260: 1812 a43d 0494 4abc c20c b83d 9bbd 293d
00000270: 8949 1fbd ce56 aebd 543f 993b 5ded cebd
00000280: 2139 9d3d 12e4 fc3d 7151 d3bd 98a9 b83d
00000290: ba32 9a3d b95f ddbc 3662 be3d ec42 dd3d
000002a0: 41f0 50bd 35d7 0d3d ddf2 9a3d 8009 ba3c
000002b0: 7144 f4bd 27bb 49bd 3049 873d 069d 3dbc
000002c0: 2bf0 ef3d 3480 cbbd 3bf9 0b3d a686 dc3d
000002d0: a2d8 e9bd c9fa c5bc cc9b cabd 78f4 04bd
000002e0: fd7e 8abd 1fe0 af3b 4ca0 43bc 8ba8 34bd
000002f0: d8d4 6f39 6bac 623d 48d7 663d b04b 0dbd
00000300: 3fa5 693d 8266 41ba 3542 f43d 12e0 19bc
00000310: ef0a c83d bffc de3d c1dc c7bd eca7 e83d
00000320: 54e9 20bc 785b d83c dbe5 723d 415d 943d
00000330: 8d4b abbd 99dd 50bc df93 ddbd de0b c43d
00000340: 9e7f 86bd 76fd 9ebd 462d f83d d1d7 60bc
00000350: 2ecb f93d 822b bfbd 0da5 97bd 6da1 5fbd
00000360: da3c a7bd dcc2 3e3c f26b eebc 1f09 c3bd
00000370: e595 043e 8926 25bd 3ef1 c53d 9d03 033d
00000380: accd 7abd f799 2a3c b518 8bbd 457a b5bc
00000390: c4a1 e8bd 5107 243d 0ab8 e93d 8a99 ab3d
000003a0: e898 9dbd aece e5bd dc64 01be 6f22 693c
000003b0: d0e6 fb3d 7733 eb3d a489 7ebc 8203 813c
000003c0: 06c0 e1bd 7138 18bc 4ea4 803d 3140 7cbd
000003d0: 0670 c0bd b5bd fc3d db76 0a3e 71f2 f9bd
000003e0: 66fe 603d 2559 e63b 2f45 c53d 7cbc c0bd
000003f0: 7eb4 b33c fd17 433d 90b3 e8bd 6775 f8bd

conv2.bias f4 [32]
-0.0855379 -0.04302 0.05320813 0.13317683 0.050879944 0.1174585 0.0155397 -0.11897181
0.020061793 0.04936011 0.010982433 0.03806307 -0.1024128 -0.08745854 -0.00058856263 0.103665225
-0.08813592 -0.109193236 -0.03566523 0.113261536 -0.0077663627 0.04153927 0.08688325 -0.10114762
0.053174626 -0.08504754 -0.06905836 0.018723534 0.056212466 0.10471703 -0.1223836 -0.071931146
00000000: 7f2e afbd bd35 30bd c5f0 593d 825f 083e
00000010: 7d67 503d 158e f03d 3a9a 7e3c 7ea7 f3bd
00000020: a158 a43c d42d 4a3d aaef 333c 06e8 1b3d
00000030: cdbd d1bd 771d b3bd c549 1aba 6f4e d43d
00000040: 9b80 b4bd b4a0 dfbd b415 12bd aaf5 e73d
00000050: f97c febb 1525 2a3d d8ef b13d 7c26 cfbd
00000060: a3cd 593d 682d aebd 786e 8dbd 1962 993c
00000070: 0b3f 663d e275 d63d 41a4 fabd a350 93bd

conv3.weight f4 [3, 32, 5, 5]
0.021531438 -0.024355194 -0.011836858 -0.003905504 -0.029909791 0.021354921 -0.01998362 0.030487912
-0.007125335 -0.017681077 0.022107096 0.022523247 0.028146805 -0.027114192 0.019529965 -0.006730847
-0.004368111 -0.008717274 -0.025110051 0.019763483 -0.008021837 -0.0081654545 -0.031777255 0.03027453
-0.028218051 0.003443765 0.011134049 0.017082753 -0.014828152 -0.017870765 -0.009593047 -0.03342942
-0.013296413 0.025447743 -0.009255381 0.010967405 -0.012237006 0.0042656665 -0.016082188 -0.002437077
0.0077106603 0.01346867 0.010849688 -0.029345045 -0.025864357 -0.0048642773 -0.0039139553 -0.01650693
-0.018652767 0.006432333 0.031334385 0.03489679 -0.018628733 0.0035539882 0.01004194 0.011019384
-0.0053607305 0.014605564 -0.0048137913 0.033527274 -0.0011341714 -0.009798481 0.01727961 -0.019639477
-0.007540744 0.015023177 0.039286863 0.006503557 -0.00031901075 0.011148181 0.0030144094 0.004908207
-0.013301063 0.0402795 0.029765677 0.030880224 0.03152479 0.009309975 0.042192556 -0.0145894885
0.034454275 0.033895783 -0.009310525 0.003901622 0.01899942 -0.018458944 0.0068444638 0.008222312
-0.020320255 0.015340647 -0.0067361104 0.01889855 -0.0007971223 0.0029451959 -0.0029790327 0.021130882
0.026311908 0.034097645 0.035752643 -0.019160215 -0.019934665 -0.02210596 0.018799014 -0.031613432
-0.014533731 0.0021549158 -0.037002694 0.018008314 -0.005725203 0.012379874 -0.026980223 -0.038763776
0.007993654 -0.010990574 -0.021638703 0.006071843 0.015020799 -0.028546069 -0.031017743 -0.015548043
-0.0067708455 0.021843234 -0.007103115 -0.007388045 -0.013136414 0.023765322 -0.018634846 -0.006576209
0.036736377 0.023408514 -0.030393483 0.0048492677 -0.023416374 -0.030826742 0.023852717 0.016702335
0.033966757 -0.020790849 0.034649305 0.021354744 0.018833645 0.023259673 -0.031176815 -0.0122843655
-0.012790761 0.00667374 -0.022832513 0.011007637 0.03418622 0.009123891 -0.014127798 0.034112655
0.016243614 -0.011717411 -0.024919955 0.012914758 0.009768209 -0.013676249 -0.024667205 0.002494924
-0.012236525 0.039581243 -0.02033621 0.004646639 0.0115335975 -0.0034930394 -0.023533722 0.029176896
0.011027912 0.008458898 0.017969456 -0.01215107 0.012549786 -0.011507033 0.039176572 0.031196576
-0.033917643 -0.03200324 -0.03141141 -0.016054101 -0.03205827 -0.0052005975 0.031077359 0.02253414
0.029634332 -0.020266756 -0.00441369 -0.018951835 0.006198297 0.028131433 0.02250672 0.010106716
-0.0072999843 0.019646466 0.01570399 -0.02088239 -0.017925786 0.014595329 0.026257953 0.010745057
0.011350433 -0.0069312053 -0.022622311 -0.018440934 -0.0041407584 0.019196596 0.009638843 0.017880922
0.026398767 0.00880894 -0.0057333517 0.018923892 0.011671306 0.024265695 -0.02483295 0.02961602
0.0010432067 -0.027774056 0.026486808 -0.0090987105 -0.025709266 -0.012828171 -0.013306287 0.025890313
-0.007470439 -0.044624865 -0.05613616 -0.025870766 0.008803755 -0.048671536 -0.046234366 -0.025419066
-0.017485922 -0.043058462 0.0033279273 -0.018584263 -0.052322216 0.0057829246 -0.02616056 -0.057180732
-0.008724963 -0.038684674 -0.04184878 -0.030268745 -0.03583012 -0.02748038 -0.031655874 -0.0042895772
-0.05502967 -0.030594813 0.01355002 0.0007892946 -0.0114379255 -0.009357876 0.015144714 -0.022896193
00000000: b362 b03c 8b84 c7bc 61ef 41bc 7cf3 7fbb
00000010: 6105 f5bc 84f0 ae3c b0b4 a3bc c9c1 f93c
00000020: a47b e9bb e8d7 90bc f119 b53c ac82 b83c
00000030: 2194 e63c 951e debc 4efd 9f3c 708e dcbb
00000040: 5f22 8fbb e6d2 0ebc 98b3 cdbc 07e7 a13c
00000050: 066e 03bc 66c8 05bc de28 02bd 4b02 f83c
00000060: 8b29 e7bc cab0 613b 966b 363c 21f1 8b3c
00000070: c7f1 72bc b665 92bc 282c 1dbc 4aed 08bd
00000080: 33d9 59bc c977 d03c e2a3 17bc a1b0 333c
00000090: b97d 48bc 01c7 8b3b cbbe 83bc 5eb7 1fbb
000000a0: b5a9 fc3b b2ab 5c3c e4c2 313c 0565 f0bc
000000b0: 7de1 d3bc 8464 9fbb a340 80bb 8b39 87bc
000000c0: b0cd 98bc 52c6 d23b 7c58 003d f0ef 0e3d
000000d0: 499b 98bc 07ea 683b f386 243c a58a 343c
000000e0: 11a9 afbb 2d4c 6f3c 02bd 9dbb e553 093d
000000f0: 7aa8 94ba cf89 20bc f88d 8d3c f8e2 a0bc
00000100: 5818 f7bb c523 763c 43eb 203d ca1b d53b
00000110: e640 a7b9 dca6 363c 668d 453b 06d5 a03b
00000120: b4ec 59bc 1efc 243d 26d7 f33c 86f8 fc3c
00000130: 2320 013d de88 183c 1ad2 2c3d c008 6fbc
00000140: ed1f 0d3d 4ed6 0a3d 2c8b 18bc 5bb2 7f3b
00000150: aca4 9b3c 3637 97bc 8647 e03b e0b6 063c
00000160: aa76 a6bc 5657 7b3c 97ba dcbb 22d1 9a3c
00000170: f9f5 50ba 3004 413b e03b 43bb ac1a ad3c
00000180: 128c d73c f9a9 0b3d 5d71 123d e2f5 9cbc
00000190: 064e a3bc 8f17 b5bc 6400 9a3c 167d 01bd
000001a0: e31e 6ebc 7d39 0d3b 2390 17bd 2c86 933c
000001b0: 7c9a bbbb f4d4 4a3c a105 ddbc c4c6 1ebd
000001c0: d1f7 023c cf11 34bc a643 b1bc 50f6 c63b
000001d0: cc19 763c 72d9 e9bc ec18 febc 38bd 7ebc
000001e0: f8dd ddbb 95f0 b23c 3fc1 e8bb 6a17 f2bb
000001f0: 1d3a 57bc 7eaf c23c 1ba8 98bc 3d7d d7bb
00000200: e278 163d 36c3 bf3c c1fb f8bc 9be6 9e3b
00000210: b2d3 bfbc 5d88 fcbc c666 c33c 56d3 883c
00000220: ba20 0b3d 9251 aabc 6eec 0d3d 25f0 ae3c
00000230: 0449 9a3c 128b be3c 8566 ffbc 5d44 49bc
00000240: 5790 51bc 64af da3b 400b bbbc 6059 343c
00000250: da06 0c3d 5f7c 153c 4878 67bc b6b9 0b3d
00000260: 5411 853c 62fa 3fbc ef24 ccbc 6c98 533c
00000270: d70a 203c 5912 60bc e112 cabc e181 233b
00000280: b57b 48bc f11f 223d 2098 a6bc d542 983b
00000290: 6af7 3c3c 7aeb 64bb cbc9 c0bc 6304 ef3c
000002a0: 6aae 343c 3197 0a3c ae34 933c 4815 47bc
000002b0: 9e9d 4d3c ff87 3cbc 9d77 203d f68f ff3c
000002c0: 3aed 0abd d415 03bd 40a9 00bd e483 83bc
000002d0: 884f 03bd c669 aabb f295 fe3c 8499 b83c
000002e0: b3c3 f23c 7806 a6bc b7a0 90bb e140 9bbc
000002f0: 151b cb3b e473 e63c 0360 b83c a496 253c
00000300: b534 efbb a0f1 a03c a7a5 803c 8c11 abbc
00000310: 19d9 92bc 3f21 6f3c eb1a d73c 090c 303c
00000320: 2bf7 393c 2a1f e3bb 6d52 b9bc 7111 97bc
00000330: 33af 87bb 2e42 9d3c 3dec 1d3c 037b 923c
00000340: 3a42 d83c 5f53 103c d7de bbbb 4706 9b3c
00000350: 0139 3f3c dac8 c63c 796e cbbc 4c9d f23c
00000360: 35bc 883a 6b86 e3bc ddfa d83c c212 15bc
00000370: 3d9c d2bc 402d 52bc 9d02 5abc ec17 d43c
00000380: 96ca f4bb 90c8 36bd 08ef 65bd eeee d3bc
00000390: a03d 103c ce5b 47bd 3f60 3dbd a53b d0bc
000003a0: a33e 8fbc 125e 30bd 5b19 5a3b 063e 98bc
000003b0: d24f 56bd b07e bd3b ac4e d6bc 5836 6abd
000003c0: 26f3 0ebc d273 1ebd a069 2bbd 29f6 f7bc
000003d0: 9bc2 12bd 891e e1bc 97a9 01bd 958f 8cbb
000003e0: cb66 61bd f9a1 fabc e700 5e3c aae8 4e3a
000003f0: 2366 3bbc c751 19bc 8921 783c cc90 bbbc

conv3.bias f4 [3]
-0.044916373 0.006214007 -0.01054084
00000000: 3bfa 37bd de9e cb3b 7db3 2cbc
